node {
  name: "global_step/Initializer/zeros"
  op: "Const"
  attr {
    key: "_class"
    value {
      list {
        s: "loc:@global_step"
      }
    }
  }
  attr {
    key: "_output_shapes"
    value {
      list {
        shape {
        }
      }
    }
  }
  attr {
    key: "dtype"
    value {
      type: DT_INT64
    }
  }
  attr {
    key: "value"
    value {
      tensor {
        dtype: DT_INT64
        tensor_shape {
        }
        int64_val: 0
      }
    }
  }
}
node {
  name: "global_step"
  op: "VariableV2"
  attr {
    key: "_class"
    value {
      list {
        s: "loc:@global_step"
      }
    }
  }
  attr {
    key: "_output_shapes"
    value {
      list {
        shape {
        }
      }
    }
  }
  attr {
    key: "container"
    value {
      s: ""
    }
  }
  attr {
    key: "dtype"
    value {
      type: DT_INT64
    }
  }
  attr {
    key: "shape"
    value {
      shape {
      }
    }
  }
  attr {
    key: "shared_name"
    value {
      s: ""
    }
  }
}
node {
  name: "global_step/Assign"
  op: "Assign"
  input: "global_step"
  input: "global_step/Initializer/zeros"
  attr {
    key: "T"
    value {
      type: DT_INT64
    }
  }
  attr {
    key: "_class"
    value {
      list {
        s: "loc:@global_step"
      }
    }
  }
  attr {
    key: "_output_shapes"
    value {
      list {
        shape {
        }
      }
    }
  }
  attr {
    key: "use_locking"
    value {
      b: true
    }
  }
  attr {
    key: "validate_shape"
    value {
      b: true
    }
  }
}
node {
  name: "global_step/read"
  op: "Identity"
  input: "global_step"
  attr {
    key: "T"
    value {
      type: DT_INT64
    }
  }
  attr {
    key: "_class"
    value {
      list {
        s: "loc:@global_step"
      }
    }
  }
  attr {
    key: "_output_shapes"
    value {
      list {
        shape {
        }
      }
    }
  }
}
node {
  name: "global_step/IsVariableInitialized"
  op: "IsVariableInitialized"
  input: "global_step"
  attr {
    key: "_class"
    value {
      list {
        s: "loc:@global_step"
      }
    }
  }
  attr {
    key: "_output_shapes"
    value {
      list {
        shape {
        }
      }
    }
  }
  attr {
    key: "dtype"
    value {
      type: DT_INT64
    }
  }
}
node {
  name: "global_step/cond/Switch"
  op: "Switch"
  input: "global_step/IsVariableInitialized"
  input: "global_step/IsVariableInitialized"
  attr {
    key: "T"
    value {
      type: DT_BOOL
    }
  }
  attr {
    key: "_output_shapes"
    value {
      list {
        shape {
        }
        shape {
        }
      }
    }
  }
}
node {
  name: "global_step/cond/switch_t"
  op: "Identity"
  input: "global_step/cond/Switch:1"
  attr {
    key: "T"
    value {
      type: DT_BOOL
    }
  }
  attr {
    key: "_output_shapes"
    value {
      list {
        shape {
        }
      }
    }
  }
}
node {
  name: "global_step/cond/switch_f"
  op: "Identity"
  input: "global_step/cond/Switch"
  attr {
    key: "T"
    value {
      type: DT_BOOL
    }
  }
  attr {
    key: "_output_shapes"
    value {
      list {
        shape {
        }
      }
    }
  }
}
node {
  name: "global_step/cond/pred_id"
  op: "Identity"
  input: "global_step/IsVariableInitialized"
  attr {
    key: "T"
    value {
      type: DT_BOOL
    }
  }
  attr {
    key: "_output_shapes"
    value {
      list {
        shape {
        }
      }
    }
  }
}
node {
  name: "global_step/cond/read"
  op: "Identity"
  input: "global_step/cond/read/Switch:1"
  attr {
    key: "T"
    value {
      type: DT_INT64
    }
  }
  attr {
    key: "_output_shapes"
    value {
      list {
        shape {
        }
      }
    }
  }
}
node {
  name: "global_step/cond/read/Switch"
  op: "RefSwitch"
  input: "global_step"
  input: "global_step/cond/pred_id"
  attr {
    key: "T"
    value {
      type: DT_INT64
    }
  }
  attr {
    key: "_class"
    value {
      list {
        s: "loc:@global_step"
      }
    }
  }
  attr {
    key: "_output_shapes"
    value {
      list {
        shape {
        }
        shape {
        }
      }
    }
  }
}
node {
  name: "global_step/cond/Switch_1"
  op: "Switch"
  input: "global_step/Initializer/zeros"
  input: "global_step/cond/pred_id"
  attr {
    key: "T"
    value {
      type: DT_INT64
    }
  }
  attr {
    key: "_class"
    value {
      list {
        s: "loc:@global_step"
      }
    }
  }
  attr {
    key: "_output_shapes"
    value {
      list {
        shape {
        }
        shape {
        }
      }
    }
  }
}
node {
  name: "global_step/cond/Merge"
  op: "Merge"
  input: "global_step/cond/Switch_1"
  input: "global_step/cond/read"
  attr {
    key: "N"
    value {
      i: 2
    }
  }
  attr {
    key: "T"
    value {
      type: DT_INT64
    }
  }
  attr {
    key: "_output_shapes"
    value {
      list {
        shape {
        }
        shape {
        }
      }
    }
  }
}
node {
  name: "global_step/add/y"
  op: "Const"
  attr {
    key: "_output_shapes"
    value {
      list {
        shape {
        }
      }
    }
  }
  attr {
    key: "dtype"
    value {
      type: DT_INT64
    }
  }
  attr {
    key: "value"
    value {
      tensor {
        dtype: DT_INT64
        tensor_shape {
        }
        int64_val: 0
      }
    }
  }
}
node {
  name: "global_step/add"
  op: "Add"
  input: "global_step/cond/Merge"
  input: "global_step/add/y"
  attr {
    key: "T"
    value {
      type: DT_INT64
    }
  }
  attr {
    key: "_output_shapes"
    value {
      list {
        shape {
        }
      }
    }
  }
}
node {
  name: "enqueue_input/random_shuffle_queue"
  op: "RandomShuffleQueueV2"
  device: "/device:CPU:0"
  attr {
    key: "_output_shapes"
    value {
      list {
        shape {
        }
      }
    }
  }
  attr {
    key: "capacity"
    value {
      i: 1000
    }
  }
  attr {
    key: "component_types"
    value {
      list {
        type: DT_INT64
        type: DT_INT64
        type: DT_DOUBLE
        type: DT_DOUBLE
        type: DT_INT64
        type: DT_INT64
        type: DT_INT64
        type: DT_INT64
        type: DT_INT64
        type: DT_INT64
        type: DT_INT64
        type: DT_INT64
        type: DT_INT64
        type: DT_INT64
        type: DT_INT64
        type: DT_INT64
        type: DT_INT64
        type: DT_INT64
        type: DT_INT64
        type: DT_INT64
        type: DT_INT64
        type: DT_INT64
        type: DT_INT64
        type: DT_INT64
      }
    }
  }
  attr {
    key: "container"
    value {
      s: ""
    }
  }
  attr {
    key: "min_after_dequeue"
    value {
      i: 250
    }
  }
  attr {
    key: "seed"
    value {
      i: 0
    }
  }
  attr {
    key: "seed2"
    value {
      i: 0
    }
  }
  attr {
    key: "shapes"
    value {
      list {
        shape {
        }
        shape {
        }
        shape {
        }
        shape {
        }
        shape {
        }
        shape {
        }
        shape {
        }
        shape {
        }
        shape {
        }
        shape {
        }
        shape {
        }
        shape {
        }
        shape {
        }
        shape {
        }
        shape {
        }
        shape {
        }
        shape {
        }
        shape {
        }
        shape {
        }
        shape {
        }
        shape {
        }
        shape {
        }
        shape {
        }
        shape {
        }
      }
    }
  }
  attr {
    key: "shared_name"
    value {
      s: ""
    }
  }
}
node {
  name: "enqueue_input/Placeholder"
  op: "Placeholder"
  device: "/device:CPU:0"
  attr {
    key: "_output_shapes"
    value {
      list {
        shape {
          unknown_rank: true
        }
      }
    }
  }
  attr {
    key: "dtype"
    value {
      type: DT_INT64
    }
  }
  attr {
    key: "shape"
    value {
      shape {
        unknown_rank: true
      }
    }
  }
}
node {
  name: "enqueue_input/Placeholder_1"
  op: "Placeholder"
  device: "/device:CPU:0"
  attr {
    key: "_output_shapes"
    value {
      list {
        shape {
          unknown_rank: true
        }
      }
    }
  }
  attr {
    key: "dtype"
    value {
      type: DT_INT64
    }
  }
  attr {
    key: "shape"
    value {
      shape {
        unknown_rank: true
      }
    }
  }
}
node {
  name: "enqueue_input/Placeholder_2"
  op: "Placeholder"
  device: "/device:CPU:0"
  attr {
    key: "_output_shapes"
    value {
      list {
        shape {
          unknown_rank: true
        }
      }
    }
  }
  attr {
    key: "dtype"
    value {
      type: DT_DOUBLE
    }
  }
  attr {
    key: "shape"
    value {
      shape {
        unknown_rank: true
      }
    }
  }
}
node {
  name: "enqueue_input/Placeholder_3"
  op: "Placeholder"
  device: "/device:CPU:0"
  attr {
    key: "_output_shapes"
    value {
      list {
        shape {
          unknown_rank: true
        }
      }
    }
  }
  attr {
    key: "dtype"
    value {
      type: DT_DOUBLE
    }
  }
  attr {
    key: "shape"
    value {
      shape {
        unknown_rank: true
      }
    }
  }
}
node {
  name: "enqueue_input/Placeholder_4"
  op: "Placeholder"
  device: "/device:CPU:0"
  attr {
    key: "_output_shapes"
    value {
      list {
        shape {
          unknown_rank: true
        }
      }
    }
  }
  attr {
    key: "dtype"
    value {
      type: DT_INT64
    }
  }
  attr {
    key: "shape"
    value {
      shape {
        unknown_rank: true
      }
    }
  }
}
node {
  name: "enqueue_input/Placeholder_5"
  op: "Placeholder"
  device: "/device:CPU:0"
  attr {
    key: "_output_shapes"
    value {
      list {
        shape {
          unknown_rank: true
        }
      }
    }
  }
  attr {
    key: "dtype"
    value {
      type: DT_INT64
    }
  }
  attr {
    key: "shape"
    value {
      shape {
        unknown_rank: true
      }
    }
  }
}
node {
  name: "enqueue_input/Placeholder_6"
  op: "Placeholder"
  device: "/device:CPU:0"
  attr {
    key: "_output_shapes"
    value {
      list {
        shape {
          unknown_rank: true
        }
      }
    }
  }
  attr {
    key: "dtype"
    value {
      type: DT_INT64
    }
  }
  attr {
    key: "shape"
    value {
      shape {
        unknown_rank: true
      }
    }
  }
}
node {
  name: "enqueue_input/Placeholder_7"
  op: "Placeholder"
  device: "/device:CPU:0"
  attr {
    key: "_output_shapes"
    value {
      list {
        shape {
          unknown_rank: true
        }
      }
    }
  }
  attr {
    key: "dtype"
    value {
      type: DT_INT64
    }
  }
  attr {
    key: "shape"
    value {
      shape {
        unknown_rank: true
      }
    }
  }
}
node {
  name: "enqueue_input/Placeholder_8"
  op: "Placeholder"
  device: "/device:CPU:0"
  attr {
    key: "_output_shapes"
    value {
      list {
        shape {
          unknown_rank: true
        }
      }
    }
  }
  attr {
    key: "dtype"
    value {
      type: DT_INT64
    }
  }
  attr {
    key: "shape"
    value {
      shape {
        unknown_rank: true
      }
    }
  }
}
node {
  name: "enqueue_input/Placeholder_9"
  op: "Placeholder"
  device: "/device:CPU:0"
  attr {
    key: "_output_shapes"
    value {
      list {
        shape {
          unknown_rank: true
        }
      }
    }
  }
  attr {
    key: "dtype"
    value {
      type: DT_INT64
    }
  }
  attr {
    key: "shape"
    value {
      shape {
        unknown_rank: true
      }
    }
  }
}
node {
  name: "enqueue_input/Placeholder_10"
  op: "Placeholder"
  device: "/device:CPU:0"
  attr {
    key: "_output_shapes"
    value {
      list {
        shape {
          unknown_rank: true
        }
      }
    }
  }
  attr {
    key: "dtype"
    value {
      type: DT_INT64
    }
  }
  attr {
    key: "shape"
    value {
      shape {
        unknown_rank: true
      }
    }
  }
}
node {
  name: "enqueue_input/Placeholder_11"
  op: "Placeholder"
  device: "/device:CPU:0"
  attr {
    key: "_output_shapes"
    value {
      list {
        shape {
          unknown_rank: true
        }
      }
    }
  }
  attr {
    key: "dtype"
    value {
      type: DT_INT64
    }
  }
  attr {
    key: "shape"
    value {
      shape {
        unknown_rank: true
      }
    }
  }
}
node {
  name: "enqueue_input/Placeholder_12"
  op: "Placeholder"
  device: "/device:CPU:0"
  attr {
    key: "_output_shapes"
    value {
      list {
        shape {
          unknown_rank: true
        }
      }
    }
  }
  attr {
    key: "dtype"
    value {
      type: DT_INT64
    }
  }
  attr {
    key: "shape"
    value {
      shape {
        unknown_rank: true
      }
    }
  }
}
node {
  name: "enqueue_input/Placeholder_13"
  op: "Placeholder"
  device: "/device:CPU:0"
  attr {
    key: "_output_shapes"
    value {
      list {
        shape {
          unknown_rank: true
        }
      }
    }
  }
  attr {
    key: "dtype"
    value {
      type: DT_INT64
    }
  }
  attr {
    key: "shape"
    value {
      shape {
        unknown_rank: true
      }
    }
  }
}
node {
  name: "enqueue_input/Placeholder_14"
  op: "Placeholder"
  device: "/device:CPU:0"
  attr {
    key: "_output_shapes"
    value {
      list {
        shape {
          unknown_rank: true
        }
      }
    }
  }
  attr {
    key: "dtype"
    value {
      type: DT_INT64
    }
  }
  attr {
    key: "shape"
    value {
      shape {
        unknown_rank: true
      }
    }
  }
}
node {
  name: "enqueue_input/Placeholder_15"
  op: "Placeholder"
  device: "/device:CPU:0"
  attr {
    key: "_output_shapes"
    value {
      list {
        shape {
          unknown_rank: true
        }
      }
    }
  }
  attr {
    key: "dtype"
    value {
      type: DT_INT64
    }
  }
  attr {
    key: "shape"
    value {
      shape {
        unknown_rank: true
      }
    }
  }
}
node {
  name: "enqueue_input/Placeholder_16"
  op: "Placeholder"
  device: "/device:CPU:0"
  attr {
    key: "_output_shapes"
    value {
      list {
        shape {
          unknown_rank: true
        }
      }
    }
  }
  attr {
    key: "dtype"
    value {
      type: DT_INT64
    }
  }
  attr {
    key: "shape"
    value {
      shape {
        unknown_rank: true
      }
    }
  }
}
node {
  name: "enqueue_input/Placeholder_17"
  op: "Placeholder"
  device: "/device:CPU:0"
  attr {
    key: "_output_shapes"
    value {
      list {
        shape {
          unknown_rank: true
        }
      }
    }
  }
  attr {
    key: "dtype"
    value {
      type: DT_INT64
    }
  }
  attr {
    key: "shape"
    value {
      shape {
        unknown_rank: true
      }
    }
  }
}
node {
  name: "enqueue_input/Placeholder_18"
  op: "Placeholder"
  device: "/device:CPU:0"
  attr {
    key: "_output_shapes"
    value {
      list {
        shape {
          unknown_rank: true
        }
      }
    }
  }
  attr {
    key: "dtype"
    value {
      type: DT_INT64
    }
  }
  attr {
    key: "shape"
    value {
      shape {
        unknown_rank: true
      }
    }
  }
}
node {
  name: "enqueue_input/Placeholder_19"
  op: "Placeholder"
  device: "/device:CPU:0"
  attr {
    key: "_output_shapes"
    value {
      list {
        shape {
          unknown_rank: true
        }
      }
    }
  }
  attr {
    key: "dtype"
    value {
      type: DT_INT64
    }
  }
  attr {
    key: "shape"
    value {
      shape {
        unknown_rank: true
      }
    }
  }
}
node {
  name: "enqueue_input/Placeholder_20"
  op: "Placeholder"
  device: "/device:CPU:0"
  attr {
    key: "_output_shapes"
    value {
      list {
        shape {
          unknown_rank: true
        }
      }
    }
  }
  attr {
    key: "dtype"
    value {
      type: DT_INT64
    }
  }
  attr {
    key: "shape"
    value {
      shape {
        unknown_rank: true
      }
    }
  }
}
node {
  name: "enqueue_input/Placeholder_21"
  op: "Placeholder"
  device: "/device:CPU:0"
  attr {
    key: "_output_shapes"
    value {
      list {
        shape {
          unknown_rank: true
        }
      }
    }
  }
  attr {
    key: "dtype"
    value {
      type: DT_INT64
    }
  }
  attr {
    key: "shape"
    value {
      shape {
        unknown_rank: true
      }
    }
  }
}
node {
  name: "enqueue_input/Placeholder_22"
  op: "Placeholder"
  device: "/device:CPU:0"
  attr {
    key: "_output_shapes"
    value {
      list {
        shape {
          unknown_rank: true
        }
      }
    }
  }
  attr {
    key: "dtype"
    value {
      type: DT_INT64
    }
  }
  attr {
    key: "shape"
    value {
      shape {
        unknown_rank: true
      }
    }
  }
}
node {
  name: "enqueue_input/Placeholder_23"
  op: "Placeholder"
  device: "/device:CPU:0"
  attr {
    key: "_output_shapes"
    value {
      list {
        shape {
          unknown_rank: true
        }
      }
    }
  }
  attr {
    key: "dtype"
    value {
      type: DT_INT64
    }
  }
  attr {
    key: "shape"
    value {
      shape {
        unknown_rank: true
      }
    }
  }
}
node {
  name: "enqueue_input/random_shuffle_queue_EnqueueMany"
  op: "QueueEnqueueManyV2"
  input: "enqueue_input/random_shuffle_queue"
  input: "enqueue_input/Placeholder"
  input: "enqueue_input/Placeholder_1"
  input: "enqueue_input/Placeholder_2"
  input: "enqueue_input/Placeholder_3"
  input: "enqueue_input/Placeholder_4"
  input: "enqueue_input/Placeholder_5"
  input: "enqueue_input/Placeholder_6"
  input: "enqueue_input/Placeholder_7"
  input: "enqueue_input/Placeholder_8"
  input: "enqueue_input/Placeholder_9"
  input: "enqueue_input/Placeholder_10"
  input: "enqueue_input/Placeholder_11"
  input: "enqueue_input/Placeholder_12"
  input: "enqueue_input/Placeholder_13"
  input: "enqueue_input/Placeholder_14"
  input: "enqueue_input/Placeholder_15"
  input: "enqueue_input/Placeholder_16"
  input: "enqueue_input/Placeholder_17"
  input: "enqueue_input/Placeholder_18"
  input: "enqueue_input/Placeholder_19"
  input: "enqueue_input/Placeholder_20"
  input: "enqueue_input/Placeholder_21"
  input: "enqueue_input/Placeholder_22"
  input: "enqueue_input/Placeholder_23"
  device: "/device:CPU:0"
  attr {
    key: "Tcomponents"
    value {
      list {
        type: DT_INT64
        type: DT_INT64
        type: DT_DOUBLE
        type: DT_DOUBLE
        type: DT_INT64
        type: DT_INT64
        type: DT_INT64
        type: DT_INT64
        type: DT_INT64
        type: DT_INT64
        type: DT_INT64
        type: DT_INT64
        type: DT_INT64
        type: DT_INT64
        type: DT_INT64
        type: DT_INT64
        type: DT_INT64
        type: DT_INT64
        type: DT_INT64
        type: DT_INT64
        type: DT_INT64
        type: DT_INT64
        type: DT_INT64
        type: DT_INT64
      }
    }
  }
  attr {
    key: "timeout_ms"
    value {
      i: -1
    }
  }
}
node {
  name: "enqueue_input/random_shuffle_queue_Close"
  op: "QueueCloseV2"
  input: "enqueue_input/random_shuffle_queue"
  device: "/device:CPU:0"
  attr {
    key: "cancel_pending_enqueues"
    value {
      b: false
    }
  }
}
node {
  name: "enqueue_input/random_shuffle_queue_Close_1"
  op: "QueueCloseV2"
  input: "enqueue_input/random_shuffle_queue"
  device: "/device:CPU:0"
  attr {
    key: "cancel_pending_enqueues"
    value {
      b: true
    }
  }
}
node {
  name: "enqueue_input/random_shuffle_queue_Size"
  op: "QueueSizeV2"
  input: "enqueue_input/random_shuffle_queue"
  device: "/device:CPU:0"
  attr {
    key: "_output_shapes"
    value {
      list {
        shape {
        }
      }
    }
  }
}
node {
  name: "enqueue_input/sub/y"
  op: "Const"
  device: "/device:CPU:0"
  attr {
    key: "_output_shapes"
    value {
      list {
        shape {
        }
      }
    }
  }
  attr {
    key: "dtype"
    value {
      type: DT_INT32
    }
  }
  attr {
    key: "value"
    value {
      tensor {
        dtype: DT_INT32
        tensor_shape {
        }
        int_val: 250
      }
    }
  }
}
node {
  name: "enqueue_input/sub"
  op: "Sub"
  input: "enqueue_input/random_shuffle_queue_Size"
  input: "enqueue_input/sub/y"
  device: "/device:CPU:0"
  attr {
    key: "T"
    value {
      type: DT_INT32
    }
  }
  attr {
    key: "_output_shapes"
    value {
      list {
        shape {
        }
      }
    }
  }
}
node {
  name: "enqueue_input/Maximum/x"
  op: "Const"
  device: "/device:CPU:0"
  attr {
    key: "_output_shapes"
    value {
      list {
        shape {
        }
      }
    }
  }
  attr {
    key: "dtype"
    value {
      type: DT_INT32
    }
  }
  attr {
    key: "value"
    value {
      tensor {
        dtype: DT_INT32
        tensor_shape {
        }
        int_val: 0
      }
    }
  }
}
node {
  name: "enqueue_input/Maximum"
  op: "Maximum"
  input: "enqueue_input/Maximum/x"
  input: "enqueue_input/sub"
  device: "/device:CPU:0"
  attr {
    key: "T"
    value {
      type: DT_INT32
    }
  }
  attr {
    key: "_output_shapes"
    value {
      list {
        shape {
        }
      }
    }
  }
}
node {
  name: "enqueue_input/Cast"
  op: "Cast"
  input: "enqueue_input/Maximum"
  device: "/device:CPU:0"
  attr {
    key: "DstT"
    value {
      type: DT_FLOAT
    }
  }
  attr {
    key: "SrcT"
    value {
      type: DT_INT32
    }
  }
  attr {
    key: "_output_shapes"
    value {
      list {
        shape {
        }
      }
    }
  }
}
node {
  name: "enqueue_input/mul/y"
  op: "Const"
  device: "/device:CPU:0"
  attr {
    key: "_output_shapes"
    value {
      list {
        shape {
        }
      }
    }
  }
  attr {
    key: "dtype"
    value {
      type: DT_FLOAT
    }
  }
  attr {
    key: "value"
    value {
      tensor {
        dtype: DT_FLOAT
        tensor_shape {
        }
        float_val: 0.0013333333190530539
      }
    }
  }
}
node {
  name: "enqueue_input/mul"
  op: "Mul"
  input: "enqueue_input/Cast"
  input: "enqueue_input/mul/y"
  device: "/device:CPU:0"
  attr {
    key: "T"
    value {
      type: DT_FLOAT
    }
  }
  attr {
    key: "_output_shapes"
    value {
      list {
        shape {
        }
      }
    }
  }
}
node {
  name: "enqueue_input/queue/enqueue_input/random_shuffle_queuefraction_over_250_of_750_full/tags"
  op: "Const"
  device: "/device:CPU:0"
  attr {
    key: "_output_shapes"
    value {
      list {
        shape {
        }
      }
    }
  }
  attr {
    key: "dtype"
    value {
      type: DT_STRING
    }
  }
  attr {
    key: "value"
    value {
      tensor {
        dtype: DT_STRING
        tensor_shape {
        }
        string_val: "enqueue_input/queue/enqueue_input/random_shuffle_queuefraction_over_250_of_750_full"
      }
    }
  }
}
node {
  name: "enqueue_input/queue/enqueue_input/random_shuffle_queuefraction_over_250_of_750_full"
  op: "ScalarSummary"
  input: "enqueue_input/queue/enqueue_input/random_shuffle_queuefraction_over_250_of_750_full/tags"
  input: "enqueue_input/mul"
  device: "/device:CPU:0"
  attr {
    key: "T"
    value {
      type: DT_FLOAT
    }
  }
  attr {
    key: "_output_shapes"
    value {
      list {
        shape {
        }
      }
    }
  }
}
node {
  name: "random_shuffle_queue_DequeueUpTo/n"
  op: "Const"
  device: "/device:CPU:0"
  attr {
    key: "_output_shapes"
    value {
      list {
        shape {
        }
      }
    }
  }
  attr {
    key: "dtype"
    value {
      type: DT_INT32
    }
  }
  attr {
    key: "value"
    value {
      tensor {
        dtype: DT_INT32
        tensor_shape {
        }
        int_val: 128
      }
    }
  }
}
node {
  name: "random_shuffle_queue_DequeueUpTo"
  op: "QueueDequeueUpToV2"
  input: "enqueue_input/random_shuffle_queue"
  input: "random_shuffle_queue_DequeueUpTo/n"
  device: "/device:CPU:0"
  attr {
    key: "_output_shapes"
    value {
      list {
        shape {
          dim {
            size: -1
          }
        }
        shape {
          dim {
            size: -1
          }
        }
        shape {
          dim {
            size: -1
          }
        }
        shape {
          dim {
            size: -1
          }
        }
        shape {
          dim {
            size: -1
          }
        }
        shape {
          dim {
            size: -1
          }
        }
        shape {
          dim {
            size: -1
          }
        }
        shape {
          dim {
            size: -1
          }
        }
        shape {
          dim {
            size: -1
          }
        }
        shape {
          dim {
            size: -1
          }
        }
        shape {
          dim {
            size: -1
          }
        }
        shape {
          dim {
            size: -1
          }
        }
        shape {
          dim {
            size: -1
          }
        }
        shape {
          dim {
            size: -1
          }
        }
        shape {
          dim {
            size: -1
          }
        }
        shape {
          dim {
            size: -1
          }
        }
        shape {
          dim {
            size: -1
          }
        }
        shape {
          dim {
            size: -1
          }
        }
        shape {
          dim {
            size: -1
          }
        }
        shape {
          dim {
            size: -1
          }
        }
        shape {
          dim {
            size: -1
          }
        }
        shape {
          dim {
            size: -1
          }
        }
        shape {
          dim {
            size: -1
          }
        }
        shape {
          dim {
            size: -1
          }
        }
      }
    }
  }
  attr {
    key: "component_types"
    value {
      list {
        type: DT_INT64
        type: DT_INT64
        type: DT_DOUBLE
        type: DT_DOUBLE
        type: DT_INT64
        type: DT_INT64
        type: DT_INT64
        type: DT_INT64
        type: DT_INT64
        type: DT_INT64
        type: DT_INT64
        type: DT_INT64
        type: DT_INT64
        type: DT_INT64
        type: DT_INT64
        type: DT_INT64
        type: DT_INT64
        type: DT_INT64
        type: DT_INT64
        type: DT_INT64
        type: DT_INT64
        type: DT_INT64
        type: DT_INT64
        type: DT_INT64
      }
    }
  }
  attr {
    key: "timeout_ms"
    value {
      i: -1
    }
  }
}
node {
  name: "dnn/input_from_feature_columns/input_layer/Action_X_Adventure_X_Animation_X_Children_X_Comedy_X_Crime_X_Documentary_X_Drama_X_Fantasy_X_Film-Noir_X_Horror_X_IMAX_X_Musical_X_Mystery_X_Romance_X_Sci-Fi_X_Thriller_X_War_X_Western_embedding/ExpandDims/dim"
  op: "Const"
  attr {
    key: "_output_shapes"
    value {
      list {
        shape {
        }
      }
    }
  }
  attr {
    key: "dtype"
    value {
      type: DT_INT32
    }
  }
  attr {
    key: "value"
    value {
      tensor {
        dtype: DT_INT32
        tensor_shape {
        }
        int_val: -1
      }
    }
  }
}
node {
  name: "dnn/input_from_feature_columns/input_layer/Action_X_Adventure_X_Animation_X_Children_X_Comedy_X_Crime_X_Documentary_X_Drama_X_Fantasy_X_Film-Noir_X_Horror_X_IMAX_X_Musical_X_Mystery_X_Romance_X_Sci-Fi_X_Thriller_X_War_X_Western_embedding/ExpandDims"
  op: "ExpandDims"
  input: "random_shuffle_queue_DequeueUpTo:4"
  input: "dnn/input_from_feature_columns/input_layer/Action_X_Adventure_X_Animation_X_Children_X_Comedy_X_Crime_X_Documentary_X_Drama_X_Fantasy_X_Film-Noir_X_Horror_X_IMAX_X_Musical_X_Mystery_X_Romance_X_Sci-Fi_X_Thriller_X_War_X_Western_embedding/ExpandDims/dim"
  attr {
    key: "T"
    value {
      type: DT_INT64
    }
  }
  attr {
    key: "Tdim"
    value {
      type: DT_INT32
    }
  }
  attr {
    key: "_output_shapes"
    value {
      list {
        shape {
          dim {
            size: -1
          }
          dim {
            size: 1
          }
        }
      }
    }
  }
}
node {
  name: "dnn/input_from_feature_columns/input_layer/Action_X_Adventure_X_Animation_X_Children_X_Comedy_X_Crime_X_Documentary_X_Drama_X_Fantasy_X_Film-Noir_X_Horror_X_IMAX_X_Musical_X_Mystery_X_Romance_X_Sci-Fi_X_Thriller_X_War_X_Western_embedding/to_sparse_input/ignore_value/x"
  op: "Const"
  attr {
    key: "_output_shapes"
    value {
      list {
        shape {
        }
      }
    }
  }
  attr {
    key: "dtype"
    value {
      type: DT_INT32
    }
  }
  attr {
    key: "value"
    value {
      tensor {
        dtype: DT_INT32
        tensor_shape {
        }
        int_val: -1
      }
    }
  }
}
node {
  name: "dnn/input_from_feature_columns/input_layer/Action_X_Adventure_X_Animation_X_Children_X_Comedy_X_Crime_X_Documentary_X_Drama_X_Fantasy_X_Film-Noir_X_Horror_X_IMAX_X_Musical_X_Mystery_X_Romance_X_Sci-Fi_X_Thriller_X_War_X_Western_embedding/to_sparse_input/ignore_value"
  op: "Cast"
  input: "dnn/input_from_feature_columns/input_layer/Action_X_Adventure_X_Animation_X_Children_X_Comedy_X_Crime_X_Documentary_X_Drama_X_Fantasy_X_Film-Noir_X_Horror_X_IMAX_X_Musical_X_Mystery_X_Romance_X_Sci-Fi_X_Thriller_X_War_X_Western_embedding/to_sparse_input/ignore_value/x"
  attr {
    key: "DstT"
    value {
      type: DT_INT64
    }
  }
  attr {
    key: "SrcT"
    value {
      type: DT_INT32
    }
  }
  attr {
    key: "_output_shapes"
    value {
      list {
        shape {
        }
      }
    }
  }
}
node {
  name: "dnn/input_from_feature_columns/input_layer/Action_X_Adventure_X_Animation_X_Children_X_Comedy_X_Crime_X_Documentary_X_Drama_X_Fantasy_X_Film-Noir_X_Horror_X_IMAX_X_Musical_X_Mystery_X_Romance_X_Sci-Fi_X_Thriller_X_War_X_Western_embedding/to_sparse_input/NotEqual"
  op: "NotEqual"
  input: "dnn/input_from_feature_columns/input_layer/Action_X_Adventure_X_Animation_X_Children_X_Comedy_X_Crime_X_Documentary_X_Drama_X_Fantasy_X_Film-Noir_X_Horror_X_IMAX_X_Musical_X_Mystery_X_Romance_X_Sci-Fi_X_Thriller_X_War_X_Western_embedding/ExpandDims"
  input: "dnn/input_from_feature_columns/input_layer/Action_X_Adventure_X_Animation_X_Children_X_Comedy_X_Crime_X_Documentary_X_Drama_X_Fantasy_X_Film-Noir_X_Horror_X_IMAX_X_Musical_X_Mystery_X_Romance_X_Sci-Fi_X_Thriller_X_War_X_Western_embedding/to_sparse_input/ignore_value"
  attr {
    key: "T"
    value {
      type: DT_INT64
    }
  }
  attr {
    key: "_output_shapes"
    value {
      list {
        shape {
          dim {
            size: -1
          }
          dim {
            size: 1
          }
        }
      }
    }
  }
}
node {
  name: "dnn/input_from_feature_columns/input_layer/Action_X_Adventure_X_Animation_X_Children_X_Comedy_X_Crime_X_Documentary_X_Drama_X_Fantasy_X_Film-Noir_X_Horror_X_IMAX_X_Musical_X_Mystery_X_Romance_X_Sci-Fi_X_Thriller_X_War_X_Western_embedding/to_sparse_input/indices"
  op: "Where"
  input: "dnn/input_from_feature_columns/input_layer/Action_X_Adventure_X_Animation_X_Children_X_Comedy_X_Crime_X_Documentary_X_Drama_X_Fantasy_X_Film-Noir_X_Horror_X_IMAX_X_Musical_X_Mystery_X_Romance_X_Sci-Fi_X_Thriller_X_War_X_Western_embedding/to_sparse_input/NotEqual"
  attr {
    key: "T"
    value {
      type: DT_BOOL
    }
  }
  attr {
    key: "_output_shapes"
    value {
      list {
        shape {
          dim {
            size: -1
          }
          dim {
            size: 2
          }
        }
      }
    }
  }
}
node {
  name: "dnn/input_from_feature_columns/input_layer/Action_X_Adventure_X_Animation_X_Children_X_Comedy_X_Crime_X_Documentary_X_Drama_X_Fantasy_X_Film-Noir_X_Horror_X_IMAX_X_Musical_X_Mystery_X_Romance_X_Sci-Fi_X_Thriller_X_War_X_Western_embedding/to_sparse_input/values"
  op: "GatherNd"
  input: "dnn/input_from_feature_columns/input_layer/Action_X_Adventure_X_Animation_X_Children_X_Comedy_X_Crime_X_Documentary_X_Drama_X_Fantasy_X_Film-Noir_X_Horror_X_IMAX_X_Musical_X_Mystery_X_Romance_X_Sci-Fi_X_Thriller_X_War_X_Western_embedding/ExpandDims"
  input: "dnn/input_from_feature_columns/input_layer/Action_X_Adventure_X_Animation_X_Children_X_Comedy_X_Crime_X_Documentary_X_Drama_X_Fantasy_X_Film-Noir_X_Horror_X_IMAX_X_Musical_X_Mystery_X_Romance_X_Sci-Fi_X_Thriller_X_War_X_Western_embedding/to_sparse_input/indices"
  attr {
    key: "Tindices"
    value {
      type: DT_INT64
    }
  }
  attr {
    key: "Tparams"
    value {
      type: DT_INT64
    }
  }
  attr {
    key: "_output_shapes"
    value {
      list {
        shape {
          dim {
            size: -1
          }
        }
      }
    }
  }
}
node {
  name: "dnn/input_from_feature_columns/input_layer/Action_X_Adventure_X_Animation_X_Children_X_Comedy_X_Crime_X_Documentary_X_Drama_X_Fantasy_X_Film-Noir_X_Horror_X_IMAX_X_Musical_X_Mystery_X_Romance_X_Sci-Fi_X_Thriller_X_War_X_Western_embedding/to_sparse_input/dense_shape"
  op: "Shape"
  input: "dnn/input_from_feature_columns/input_layer/Action_X_Adventure_X_Animation_X_Children_X_Comedy_X_Crime_X_Documentary_X_Drama_X_Fantasy_X_Film-Noir_X_Horror_X_IMAX_X_Musical_X_Mystery_X_Romance_X_Sci-Fi_X_Thriller_X_War_X_Western_embedding/ExpandDims"
  attr {
    key: "T"
    value {
      type: DT_INT64
    }
  }
  attr {
    key: "_output_shapes"
    value {
      list {
        shape {
          dim {
            size: 2
          }
        }
      }
    }
  }
  attr {
    key: "out_type"
    value {
      type: DT_INT64
    }
  }
}
node {
  name: "dnn/input_from_feature_columns/input_layer/Action_X_Adventure_X_Animation_X_Children_X_Comedy_X_Crime_X_Documentary_X_Drama_X_Fantasy_X_Film-Noir_X_Horror_X_IMAX_X_Musical_X_Mystery_X_Romance_X_Sci-Fi_X_Thriller_X_War_X_Western_embedding/num_buckets/x"
  op: "Const"
  attr {
    key: "_output_shapes"
    value {
      list {
        shape {
        }
      }
    }
  }
  attr {
    key: "dtype"
    value {
      type: DT_INT32
    }
  }
  attr {
    key: "value"
    value {
      tensor {
        dtype: DT_INT32
        tensor_shape {
        }
        int_val: 2
      }
    }
  }
}
node {
  name: "dnn/input_from_feature_columns/input_layer/Action_X_Adventure_X_Animation_X_Children_X_Comedy_X_Crime_X_Documentary_X_Drama_X_Fantasy_X_Film-Noir_X_Horror_X_IMAX_X_Musical_X_Mystery_X_Romance_X_Sci-Fi_X_Thriller_X_War_X_Western_embedding/num_buckets"
  op: "Cast"
  input: "dnn/input_from_feature_columns/input_layer/Action_X_Adventure_X_Animation_X_Children_X_Comedy_X_Crime_X_Documentary_X_Drama_X_Fantasy_X_Film-Noir_X_Horror_X_IMAX_X_Musical_X_Mystery_X_Romance_X_Sci-Fi_X_Thriller_X_War_X_Western_embedding/num_buckets/x"
  attr {
    key: "DstT"
    value {
      type: DT_INT64
    }
  }
  attr {
    key: "SrcT"
    value {
      type: DT_INT32
    }
  }
  attr {
    key: "_output_shapes"
    value {
      list {
        shape {
        }
      }
    }
  }
}
node {
  name: "dnn/input_from_feature_columns/input_layer/Action_X_Adventure_X_Animation_X_Children_X_Comedy_X_Crime_X_Documentary_X_Drama_X_Fantasy_X_Film-Noir_X_Horror_X_IMAX_X_Musical_X_Mystery_X_Romance_X_Sci-Fi_X_Thriller_X_War_X_Western_embedding/zero/x"
  op: "Const"
  attr {
    key: "_output_shapes"
    value {
      list {
        shape {
        }
      }
    }
  }
  attr {
    key: "dtype"
    value {
      type: DT_INT32
    }
  }
  attr {
    key: "value"
    value {
      tensor {
        dtype: DT_INT32
        tensor_shape {
        }
        int_val: 0
      }
    }
  }
}
node {
  name: "dnn/input_from_feature_columns/input_layer/Action_X_Adventure_X_Animation_X_Children_X_Comedy_X_Crime_X_Documentary_X_Drama_X_Fantasy_X_Film-Noir_X_Horror_X_IMAX_X_Musical_X_Mystery_X_Romance_X_Sci-Fi_X_Thriller_X_War_X_Western_embedding/zero"
  op: "Cast"
  input: "dnn/input_from_feature_columns/input_layer/Action_X_Adventure_X_Animation_X_Children_X_Comedy_X_Crime_X_Documentary_X_Drama_X_Fantasy_X_Film-Noir_X_Horror_X_IMAX_X_Musical_X_Mystery_X_Romance_X_Sci-Fi_X_Thriller_X_War_X_Western_embedding/zero/x"
  attr {
    key: "DstT"
    value {
      type: DT_INT64
    }
  }
  attr {
    key: "SrcT"
    value {
      type: DT_INT32
    }
  }
  attr {
    key: "_output_shapes"
    value {
      list {
        shape {
        }
      }
    }
  }
}
node {
  name: "dnn/input_from_feature_columns/input_layer/Action_X_Adventure_X_Animation_X_Children_X_Comedy_X_Crime_X_Documentary_X_Drama_X_Fantasy_X_Film-Noir_X_Horror_X_IMAX_X_Musical_X_Mystery_X_Romance_X_Sci-Fi_X_Thriller_X_War_X_Western_embedding/Less"
  op: "Less"
  input: "dnn/input_from_feature_columns/input_layer/Action_X_Adventure_X_Animation_X_Children_X_Comedy_X_Crime_X_Documentary_X_Drama_X_Fantasy_X_Film-Noir_X_Horror_X_IMAX_X_Musical_X_Mystery_X_Romance_X_Sci-Fi_X_Thriller_X_War_X_Western_embedding/to_sparse_input/values"
  input: "dnn/input_from_feature_columns/input_layer/Action_X_Adventure_X_Animation_X_Children_X_Comedy_X_Crime_X_Documentary_X_Drama_X_Fantasy_X_Film-Noir_X_Horror_X_IMAX_X_Musical_X_Mystery_X_Romance_X_Sci-Fi_X_Thriller_X_War_X_Western_embedding/zero"
  attr {
    key: "T"
    value {
      type: DT_INT64
    }
  }
  attr {
    key: "_output_shapes"
    value {
      list {
        shape {
          dim {
            size: -1
          }
        }
      }
    }
  }
}
node {
  name: "dnn/input_from_feature_columns/input_layer/Action_X_Adventure_X_Animation_X_Children_X_Comedy_X_Crime_X_Documentary_X_Drama_X_Fantasy_X_Film-Noir_X_Horror_X_IMAX_X_Musical_X_Mystery_X_Romance_X_Sci-Fi_X_Thriller_X_War_X_Western_embedding/GreaterEqual"
  op: "GreaterEqual"
  input: "dnn/input_from_feature_columns/input_layer/Action_X_Adventure_X_Animation_X_Children_X_Comedy_X_Crime_X_Documentary_X_Drama_X_Fantasy_X_Film-Noir_X_Horror_X_IMAX_X_Musical_X_Mystery_X_Romance_X_Sci-Fi_X_Thriller_X_War_X_Western_embedding/to_sparse_input/values"
  input: "dnn/input_from_feature_columns/input_layer/Action_X_Adventure_X_Animation_X_Children_X_Comedy_X_Crime_X_Documentary_X_Drama_X_Fantasy_X_Film-Noir_X_Horror_X_IMAX_X_Musical_X_Mystery_X_Romance_X_Sci-Fi_X_Thriller_X_War_X_Western_embedding/num_buckets"
  attr {
    key: "T"
    value {
      type: DT_INT64
    }
  }
  attr {
    key: "_output_shapes"
    value {
      list {
        shape {
          dim {
            size: -1
          }
        }
      }
    }
  }
}
node {
  name: "dnn/input_from_feature_columns/input_layer/Action_X_Adventure_X_Animation_X_Children_X_Comedy_X_Crime_X_Documentary_X_Drama_X_Fantasy_X_Film-Noir_X_Horror_X_IMAX_X_Musical_X_Mystery_X_Romance_X_Sci-Fi_X_Thriller_X_War_X_Western_embedding/out_of_range"
  op: "LogicalOr"
  input: "dnn/input_from_feature_columns/input_layer/Action_X_Adventure_X_Animation_X_Children_X_Comedy_X_Crime_X_Documentary_X_Drama_X_Fantasy_X_Film-Noir_X_Horror_X_IMAX_X_Musical_X_Mystery_X_Romance_X_Sci-Fi_X_Thriller_X_War_X_Western_embedding/Less"
  input: "dnn/input_from_feature_columns/input_layer/Action_X_Adventure_X_Animation_X_Children_X_Comedy_X_Crime_X_Documentary_X_Drama_X_Fantasy_X_Film-Noir_X_Horror_X_IMAX_X_Musical_X_Mystery_X_Romance_X_Sci-Fi_X_Thriller_X_War_X_Western_embedding/GreaterEqual"
  attr {
    key: "_output_shapes"
    value {
      list {
        shape {
          dim {
            size: -1
          }
        }
      }
    }
  }
}
node {
  name: "dnn/input_from_feature_columns/input_layer/Action_X_Adventure_X_Animation_X_Children_X_Comedy_X_Crime_X_Documentary_X_Drama_X_Fantasy_X_Film-Noir_X_Horror_X_IMAX_X_Musical_X_Mystery_X_Romance_X_Sci-Fi_X_Thriller_X_War_X_Western_embedding/Shape"
  op: "Shape"
  input: "dnn/input_from_feature_columns/input_layer/Action_X_Adventure_X_Animation_X_Children_X_Comedy_X_Crime_X_Documentary_X_Drama_X_Fantasy_X_Film-Noir_X_Horror_X_IMAX_X_Musical_X_Mystery_X_Romance_X_Sci-Fi_X_Thriller_X_War_X_Western_embedding/to_sparse_input/values"
  attr {
    key: "T"
    value {
      type: DT_INT64
    }
  }
  attr {
    key: "_output_shapes"
    value {
      list {
        shape {
          dim {
            size: 1
          }
        }
      }
    }
  }
  attr {
    key: "out_type"
    value {
      type: DT_INT32
    }
  }
}
node {
  name: "dnn/input_from_feature_columns/input_layer/Action_X_Adventure_X_Animation_X_Children_X_Comedy_X_Crime_X_Documentary_X_Drama_X_Fantasy_X_Film-Noir_X_Horror_X_IMAX_X_Musical_X_Mystery_X_Romance_X_Sci-Fi_X_Thriller_X_War_X_Western_embedding/ToInt64/x"
  op: "Const"
  attr {
    key: "_output_shapes"
    value {
      list {
        shape {
        }
      }
    }
  }
  attr {
    key: "dtype"
    value {
      type: DT_INT32
    }
  }
  attr {
    key: "value"
    value {
      tensor {
        dtype: DT_INT32
        tensor_shape {
        }
        int_val: 0
      }
    }
  }
}
node {
  name: "dnn/input_from_feature_columns/input_layer/Action_X_Adventure_X_Animation_X_Children_X_Comedy_X_Crime_X_Documentary_X_Drama_X_Fantasy_X_Film-Noir_X_Horror_X_IMAX_X_Musical_X_Mystery_X_Romance_X_Sci-Fi_X_Thriller_X_War_X_Western_embedding/ToInt64"
  op: "Cast"
  input: "dnn/input_from_feature_columns/input_layer/Action_X_Adventure_X_Animation_X_Children_X_Comedy_X_Crime_X_Documentary_X_Drama_X_Fantasy_X_Film-Noir_X_Horror_X_IMAX_X_Musical_X_Mystery_X_Romance_X_Sci-Fi_X_Thriller_X_War_X_Western_embedding/ToInt64/x"
  attr {
    key: "DstT"
    value {
      type: DT_INT64
    }
  }
  attr {
    key: "SrcT"
    value {
      type: DT_INT32
    }
  }
  attr {
    key: "_output_shapes"
    value {
      list {
        shape {
        }
      }
    }
  }
}
node {
  name: "dnn/input_from_feature_columns/input_layer/Action_X_Adventure_X_Animation_X_Children_X_Comedy_X_Crime_X_Documentary_X_Drama_X_Fantasy_X_Film-Noir_X_Horror_X_IMAX_X_Musical_X_Mystery_X_Romance_X_Sci-Fi_X_Thriller_X_War_X_Western_embedding/default_values"
  op: "Fill"
  input: "dnn/input_from_feature_columns/input_layer/Action_X_Adventure_X_Animation_X_Children_X_Comedy_X_Crime_X_Documentary_X_Drama_X_Fantasy_X_Film-Noir_X_Horror_X_IMAX_X_Musical_X_Mystery_X_Romance_X_Sci-Fi_X_Thriller_X_War_X_Western_embedding/Shape"
  input: "dnn/input_from_feature_columns/input_layer/Action_X_Adventure_X_Animation_X_Children_X_Comedy_X_Crime_X_Documentary_X_Drama_X_Fantasy_X_Film-Noir_X_Horror_X_IMAX_X_Musical_X_Mystery_X_Romance_X_Sci-Fi_X_Thriller_X_War_X_Western_embedding/ToInt64"
  attr {
    key: "T"
    value {
      type: DT_INT64
    }
  }
  attr {
    key: "_output_shapes"
    value {
      list {
        shape {
          dim {
            size: -1
          }
        }
      }
    }
  }
  attr {
    key: "index_type"
    value {
      type: DT_INT32
    }
  }
}
node {
  name: "dnn/input_from_feature_columns/input_layer/Action_X_Adventure_X_Animation_X_Children_X_Comedy_X_Crime_X_Documentary_X_Drama_X_Fantasy_X_Film-Noir_X_Horror_X_IMAX_X_Musical_X_Mystery_X_Romance_X_Sci-Fi_X_Thriller_X_War_X_Western_embedding/Select"
  op: "Select"
  input: "dnn/input_from_feature_columns/input_layer/Action_X_Adventure_X_Animation_X_Children_X_Comedy_X_Crime_X_Documentary_X_Drama_X_Fantasy_X_Film-Noir_X_Horror_X_IMAX_X_Musical_X_Mystery_X_Romance_X_Sci-Fi_X_Thriller_X_War_X_Western_embedding/out_of_range"
  input: "dnn/input_from_feature_columns/input_layer/Action_X_Adventure_X_Animation_X_Children_X_Comedy_X_Crime_X_Documentary_X_Drama_X_Fantasy_X_Film-Noir_X_Horror_X_IMAX_X_Musical_X_Mystery_X_Romance_X_Sci-Fi_X_Thriller_X_War_X_Western_embedding/default_values"
  input: "dnn/input_from_feature_columns/input_layer/Action_X_Adventure_X_Animation_X_Children_X_Comedy_X_Crime_X_Documentary_X_Drama_X_Fantasy_X_Film-Noir_X_Horror_X_IMAX_X_Musical_X_Mystery_X_Romance_X_Sci-Fi_X_Thriller_X_War_X_Western_embedding/to_sparse_input/values"
  attr {
    key: "T"
    value {
      type: DT_INT64
    }
  }
  attr {
    key: "_output_shapes"
    value {
      list {
        shape {
          dim {
            size: -1
          }
        }
      }
    }
  }
}
node {
  name: "dnn/input_from_feature_columns/input_layer/Action_X_Adventure_X_Animation_X_Children_X_Comedy_X_Crime_X_Documentary_X_Drama_X_Fantasy_X_Film-Noir_X_Horror_X_IMAX_X_Musical_X_Mystery_X_Romance_X_Sci-Fi_X_Thriller_X_War_X_Western_embedding/ExpandDims_1/dim"
  op: "Const"
  attr {
    key: "_output_shapes"
    value {
      list {
        shape {
        }
      }
    }
  }
  attr {
    key: "dtype"
    value {
      type: DT_INT32
    }
  }
  attr {
    key: "value"
    value {
      tensor {
        dtype: DT_INT32
        tensor_shape {
        }
        int_val: -1
      }
    }
  }
}
node {
  name: "dnn/input_from_feature_columns/input_layer/Action_X_Adventure_X_Animation_X_Children_X_Comedy_X_Crime_X_Documentary_X_Drama_X_Fantasy_X_Film-Noir_X_Horror_X_IMAX_X_Musical_X_Mystery_X_Romance_X_Sci-Fi_X_Thriller_X_War_X_Western_embedding/ExpandDims_1"
  op: "ExpandDims"
  input: "random_shuffle_queue_DequeueUpTo:5"
  input: "dnn/input_from_feature_columns/input_layer/Action_X_Adventure_X_Animation_X_Children_X_Comedy_X_Crime_X_Documentary_X_Drama_X_Fantasy_X_Film-Noir_X_Horror_X_IMAX_X_Musical_X_Mystery_X_Romance_X_Sci-Fi_X_Thriller_X_War_X_Western_embedding/ExpandDims_1/dim"
  attr {
    key: "T"
    value {
      type: DT_INT64
    }
  }
  attr {
    key: "Tdim"
    value {
      type: DT_INT32
    }
  }
  attr {
    key: "_output_shapes"
    value {
      list {
        shape {
          dim {
            size: -1
          }
          dim {
            size: 1
          }
        }
      }
    }
  }
}
node {
  name: "dnn/input_from_feature_columns/input_layer/Action_X_Adventure_X_Animation_X_Children_X_Comedy_X_Crime_X_Documentary_X_Drama_X_Fantasy_X_Film-Noir_X_Horror_X_IMAX_X_Musical_X_Mystery_X_Romance_X_Sci-Fi_X_Thriller_X_War_X_Western_embedding/to_sparse_input_1/ignore_value/x"
  op: "Const"
  attr {
    key: "_output_shapes"
    value {
      list {
        shape {
        }
      }
    }
  }
  attr {
    key: "dtype"
    value {
      type: DT_INT32
    }
  }
  attr {
    key: "value"
    value {
      tensor {
        dtype: DT_INT32
        tensor_shape {
        }
        int_val: -1
      }
    }
  }
}
node {
  name: "dnn/input_from_feature_columns/input_layer/Action_X_Adventure_X_Animation_X_Children_X_Comedy_X_Crime_X_Documentary_X_Drama_X_Fantasy_X_Film-Noir_X_Horror_X_IMAX_X_Musical_X_Mystery_X_Romance_X_Sci-Fi_X_Thriller_X_War_X_Western_embedding/to_sparse_input_1/ignore_value"
  op: "Cast"
  input: "dnn/input_from_feature_columns/input_layer/Action_X_Adventure_X_Animation_X_Children_X_Comedy_X_Crime_X_Documentary_X_Drama_X_Fantasy_X_Film-Noir_X_Horror_X_IMAX_X_Musical_X_Mystery_X_Romance_X_Sci-Fi_X_Thriller_X_War_X_Western_embedding/to_sparse_input_1/ignore_value/x"
  attr {
    key: "DstT"
    value {
      type: DT_INT64
    }
  }
  attr {
    key: "SrcT"
    value {
      type: DT_INT32
    }
  }
  attr {
    key: "_output_shapes"
    value {
      list {
        shape {
        }
      }
    }
  }
}
node {
  name: "dnn/input_from_feature_columns/input_layer/Action_X_Adventure_X_Animation_X_Children_X_Comedy_X_Crime_X_Documentary_X_Drama_X_Fantasy_X_Film-Noir_X_Horror_X_IMAX_X_Musical_X_Mystery_X_Romance_X_Sci-Fi_X_Thriller_X_War_X_Western_embedding/to_sparse_input_1/NotEqual"
  op: "NotEqual"
  input: "dnn/input_from_feature_columns/input_layer/Action_X_Adventure_X_Animation_X_Children_X_Comedy_X_Crime_X_Documentary_X_Drama_X_Fantasy_X_Film-Noir_X_Horror_X_IMAX_X_Musical_X_Mystery_X_Romance_X_Sci-Fi_X_Thriller_X_War_X_Western_embedding/ExpandDims_1"
  input: "dnn/input_from_feature_columns/input_layer/Action_X_Adventure_X_Animation_X_Children_X_Comedy_X_Crime_X_Documentary_X_Drama_X_Fantasy_X_Film-Noir_X_Horror_X_IMAX_X_Musical_X_Mystery_X_Romance_X_Sci-Fi_X_Thriller_X_War_X_Western_embedding/to_sparse_input_1/ignore_value"
  attr {
    key: "T"
    value {
      type: DT_INT64
    }
  }
  attr {
    key: "_output_shapes"
    value {
      list {
        shape {
          dim {
            size: -1
          }
          dim {
            size: 1
          }
        }
      }
    }
  }
}
node {
  name: "dnn/input_from_feature_columns/input_layer/Action_X_Adventure_X_Animation_X_Children_X_Comedy_X_Crime_X_Documentary_X_Drama_X_Fantasy_X_Film-Noir_X_Horror_X_IMAX_X_Musical_X_Mystery_X_Romance_X_Sci-Fi_X_Thriller_X_War_X_Western_embedding/to_sparse_input_1/indices"
  op: "Where"
  input: "dnn/input_from_feature_columns/input_layer/Action_X_Adventure_X_Animation_X_Children_X_Comedy_X_Crime_X_Documentary_X_Drama_X_Fantasy_X_Film-Noir_X_Horror_X_IMAX_X_Musical_X_Mystery_X_Romance_X_Sci-Fi_X_Thriller_X_War_X_Western_embedding/to_sparse_input_1/NotEqual"
  attr {
    key: "T"
    value {
      type: DT_BOOL
    }
  }
  attr {
    key: "_output_shapes"
    value {
      list {
        shape {
          dim {
            size: -1
          }
          dim {
            size: 2
          }
        }
      }
    }
  }
}
node {
  name: "dnn/input_from_feature_columns/input_layer/Action_X_Adventure_X_Animation_X_Children_X_Comedy_X_Crime_X_Documentary_X_Drama_X_Fantasy_X_Film-Noir_X_Horror_X_IMAX_X_Musical_X_Mystery_X_Romance_X_Sci-Fi_X_Thriller_X_War_X_Western_embedding/to_sparse_input_1/values"
  op: "GatherNd"
  input: "dnn/input_from_feature_columns/input_layer/Action_X_Adventure_X_Animation_X_Children_X_Comedy_X_Crime_X_Documentary_X_Drama_X_Fantasy_X_Film-Noir_X_Horror_X_IMAX_X_Musical_X_Mystery_X_Romance_X_Sci-Fi_X_Thriller_X_War_X_Western_embedding/ExpandDims_1"
  input: "dnn/input_from_feature_columns/input_layer/Action_X_Adventure_X_Animation_X_Children_X_Comedy_X_Crime_X_Documentary_X_Drama_X_Fantasy_X_Film-Noir_X_Horror_X_IMAX_X_Musical_X_Mystery_X_Romance_X_Sci-Fi_X_Thriller_X_War_X_Western_embedding/to_sparse_input_1/indices"
  attr {
    key: "Tindices"
    value {
      type: DT_INT64
    }
  }
  attr {
    key: "Tparams"
    value {
      type: DT_INT64
    }
  }
  attr {
    key: "_output_shapes"
    value {
      list {
        shape {
          dim {
            size: -1
          }
        }
      }
    }
  }
}
node {
  name: "dnn/input_from_feature_columns/input_layer/Action_X_Adventure_X_Animation_X_Children_X_Comedy_X_Crime_X_Documentary_X_Drama_X_Fantasy_X_Film-Noir_X_Horror_X_IMAX_X_Musical_X_Mystery_X_Romance_X_Sci-Fi_X_Thriller_X_War_X_Western_embedding/to_sparse_input_1/dense_shape"
  op: "Shape"
  input: "dnn/input_from_feature_columns/input_layer/Action_X_Adventure_X_Animation_X_Children_X_Comedy_X_Crime_X_Documentary_X_Drama_X_Fantasy_X_Film-Noir_X_Horror_X_IMAX_X_Musical_X_Mystery_X_Romance_X_Sci-Fi_X_Thriller_X_War_X_Western_embedding/ExpandDims_1"
  attr {
    key: "T"
    value {
      type: DT_INT64
    }
  }
  attr {
    key: "_output_shapes"
    value {
      list {
        shape {
          dim {
            size: 2
          }
        }
      }
    }
  }
  attr {
    key: "out_type"
    value {
      type: DT_INT64
    }
  }
}
node {
  name: "dnn/input_from_feature_columns/input_layer/Action_X_Adventure_X_Animation_X_Children_X_Comedy_X_Crime_X_Documentary_X_Drama_X_Fantasy_X_Film-Noir_X_Horror_X_IMAX_X_Musical_X_Mystery_X_Romance_X_Sci-Fi_X_Thriller_X_War_X_Western_embedding/num_buckets_1/x"
  op: "Const"
  attr {
    key: "_output_shapes"
    value {
      list {
        shape {
        }
      }
    }
  }
  attr {
    key: "dtype"
    value {
      type: DT_INT32
    }
  }
  attr {
    key: "value"
    value {
      tensor {
        dtype: DT_INT32
        tensor_shape {
        }
        int_val: 2
      }
    }
  }
}
node {
  name: "dnn/input_from_feature_columns/input_layer/Action_X_Adventure_X_Animation_X_Children_X_Comedy_X_Crime_X_Documentary_X_Drama_X_Fantasy_X_Film-Noir_X_Horror_X_IMAX_X_Musical_X_Mystery_X_Romance_X_Sci-Fi_X_Thriller_X_War_X_Western_embedding/num_buckets_1"
  op: "Cast"
  input: "dnn/input_from_feature_columns/input_layer/Action_X_Adventure_X_Animation_X_Children_X_Comedy_X_Crime_X_Documentary_X_Drama_X_Fantasy_X_Film-Noir_X_Horror_X_IMAX_X_Musical_X_Mystery_X_Romance_X_Sci-Fi_X_Thriller_X_War_X_Western_embedding/num_buckets_1/x"
  attr {
    key: "DstT"
    value {
      type: DT_INT64
    }
  }
  attr {
    key: "SrcT"
    value {
      type: DT_INT32
    }
  }
  attr {
    key: "_output_shapes"
    value {
      list {
        shape {
        }
      }
    }
  }
}
node {
  name: "dnn/input_from_feature_columns/input_layer/Action_X_Adventure_X_Animation_X_Children_X_Comedy_X_Crime_X_Documentary_X_Drama_X_Fantasy_X_Film-Noir_X_Horror_X_IMAX_X_Musical_X_Mystery_X_Romance_X_Sci-Fi_X_Thriller_X_War_X_Western_embedding/zero_1/x"
  op: "Const"
  attr {
    key: "_output_shapes"
    value {
      list {
        shape {
        }
      }
    }
  }
  attr {
    key: "dtype"
    value {
      type: DT_INT32
    }
  }
  attr {
    key: "value"
    value {
      tensor {
        dtype: DT_INT32
        tensor_shape {
        }
        int_val: 0
      }
    }
  }
}
node {
  name: "dnn/input_from_feature_columns/input_layer/Action_X_Adventure_X_Animation_X_Children_X_Comedy_X_Crime_X_Documentary_X_Drama_X_Fantasy_X_Film-Noir_X_Horror_X_IMAX_X_Musical_X_Mystery_X_Romance_X_Sci-Fi_X_Thriller_X_War_X_Western_embedding/zero_1"
  op: "Cast"
  input: "dnn/input_from_feature_columns/input_layer/Action_X_Adventure_X_Animation_X_Children_X_Comedy_X_Crime_X_Documentary_X_Drama_X_Fantasy_X_Film-Noir_X_Horror_X_IMAX_X_Musical_X_Mystery_X_Romance_X_Sci-Fi_X_Thriller_X_War_X_Western_embedding/zero_1/x"
  attr {
    key: "DstT"
    value {
      type: DT_INT64
    }
  }
  attr {
    key: "SrcT"
    value {
      type: DT_INT32
    }
  }
  attr {
    key: "_output_shapes"
    value {
      list {
        shape {
        }
      }
    }
  }
}
node {
  name: "dnn/input_from_feature_columns/input_layer/Action_X_Adventure_X_Animation_X_Children_X_Comedy_X_Crime_X_Documentary_X_Drama_X_Fantasy_X_Film-Noir_X_Horror_X_IMAX_X_Musical_X_Mystery_X_Romance_X_Sci-Fi_X_Thriller_X_War_X_Western_embedding/Less_1"
  op: "Less"
  input: "dnn/input_from_feature_columns/input_layer/Action_X_Adventure_X_Animation_X_Children_X_Comedy_X_Crime_X_Documentary_X_Drama_X_Fantasy_X_Film-Noir_X_Horror_X_IMAX_X_Musical_X_Mystery_X_Romance_X_Sci-Fi_X_Thriller_X_War_X_Western_embedding/to_sparse_input_1/values"
  input: "dnn/input_from_feature_columns/input_layer/Action_X_Adventure_X_Animation_X_Children_X_Comedy_X_Crime_X_Documentary_X_Drama_X_Fantasy_X_Film-Noir_X_Horror_X_IMAX_X_Musical_X_Mystery_X_Romance_X_Sci-Fi_X_Thriller_X_War_X_Western_embedding/zero_1"
  attr {
    key: "T"
    value {
      type: DT_INT64
    }
  }
  attr {
    key: "_output_shapes"
    value {
      list {
        shape {
          dim {
            size: -1
          }
        }
      }
    }
  }
}
node {
  name: "dnn/input_from_feature_columns/input_layer/Action_X_Adventure_X_Animation_X_Children_X_Comedy_X_Crime_X_Documentary_X_Drama_X_Fantasy_X_Film-Noir_X_Horror_X_IMAX_X_Musical_X_Mystery_X_Romance_X_Sci-Fi_X_Thriller_X_War_X_Western_embedding/GreaterEqual_1"
  op: "GreaterEqual"
  input: "dnn/input_from_feature_columns/input_layer/Action_X_Adventure_X_Animation_X_Children_X_Comedy_X_Crime_X_Documentary_X_Drama_X_Fantasy_X_Film-Noir_X_Horror_X_IMAX_X_Musical_X_Mystery_X_Romance_X_Sci-Fi_X_Thriller_X_War_X_Western_embedding/to_sparse_input_1/values"
  input: "dnn/input_from_feature_columns/input_layer/Action_X_Adventure_X_Animation_X_Children_X_Comedy_X_Crime_X_Documentary_X_Drama_X_Fantasy_X_Film-Noir_X_Horror_X_IMAX_X_Musical_X_Mystery_X_Romance_X_Sci-Fi_X_Thriller_X_War_X_Western_embedding/num_buckets_1"
  attr {
    key: "T"
    value {
      type: DT_INT64
    }
  }
  attr {
    key: "_output_shapes"
    value {
      list {
        shape {
          dim {
            size: -1
          }
        }
      }
    }
  }
}
node {
  name: "dnn/input_from_feature_columns/input_layer/Action_X_Adventure_X_Animation_X_Children_X_Comedy_X_Crime_X_Documentary_X_Drama_X_Fantasy_X_Film-Noir_X_Horror_X_IMAX_X_Musical_X_Mystery_X_Romance_X_Sci-Fi_X_Thriller_X_War_X_Western_embedding/out_of_range_1"
  op: "LogicalOr"
  input: "dnn/input_from_feature_columns/input_layer/Action_X_Adventure_X_Animation_X_Children_X_Comedy_X_Crime_X_Documentary_X_Drama_X_Fantasy_X_Film-Noir_X_Horror_X_IMAX_X_Musical_X_Mystery_X_Romance_X_Sci-Fi_X_Thriller_X_War_X_Western_embedding/Less_1"
  input: "dnn/input_from_feature_columns/input_layer/Action_X_Adventure_X_Animation_X_Children_X_Comedy_X_Crime_X_Documentary_X_Drama_X_Fantasy_X_Film-Noir_X_Horror_X_IMAX_X_Musical_X_Mystery_X_Romance_X_Sci-Fi_X_Thriller_X_War_X_Western_embedding/GreaterEqual_1"
  attr {
    key: "_output_shapes"
    value {
      list {
        shape {
          dim {
            size: -1
          }
        }
      }
    }
  }
}
node {
  name: "dnn/input_from_feature_columns/input_layer/Action_X_Adventure_X_Animation_X_Children_X_Comedy_X_Crime_X_Documentary_X_Drama_X_Fantasy_X_Film-Noir_X_Horror_X_IMAX_X_Musical_X_Mystery_X_Romance_X_Sci-Fi_X_Thriller_X_War_X_Western_embedding/Shape_1"
  op: "Shape"
  input: "dnn/input_from_feature_columns/input_layer/Action_X_Adventure_X_Animation_X_Children_X_Comedy_X_Crime_X_Documentary_X_Drama_X_Fantasy_X_Film-Noir_X_Horror_X_IMAX_X_Musical_X_Mystery_X_Romance_X_Sci-Fi_X_Thriller_X_War_X_Western_embedding/to_sparse_input_1/values"
  attr {
    key: "T"
    value {
      type: DT_INT64
    }
  }
  attr {
    key: "_output_shapes"
    value {
      list {
        shape {
          dim {
            size: 1
          }
        }
      }
    }
  }
  attr {
    key: "out_type"
    value {
      type: DT_INT32
    }
  }
}
node {
  name: "dnn/input_from_feature_columns/input_layer/Action_X_Adventure_X_Animation_X_Children_X_Comedy_X_Crime_X_Documentary_X_Drama_X_Fantasy_X_Film-Noir_X_Horror_X_IMAX_X_Musical_X_Mystery_X_Romance_X_Sci-Fi_X_Thriller_X_War_X_Western_embedding/ToInt64_1/x"
  op: "Const"
  attr {
    key: "_output_shapes"
    value {
      list {
        shape {
        }
      }
    }
  }
  attr {
    key: "dtype"
    value {
      type: DT_INT32
    }
  }
  attr {
    key: "value"
    value {
      tensor {
        dtype: DT_INT32
        tensor_shape {
        }
        int_val: 0
      }
    }
  }
}
node {
  name: "dnn/input_from_feature_columns/input_layer/Action_X_Adventure_X_Animation_X_Children_X_Comedy_X_Crime_X_Documentary_X_Drama_X_Fantasy_X_Film-Noir_X_Horror_X_IMAX_X_Musical_X_Mystery_X_Romance_X_Sci-Fi_X_Thriller_X_War_X_Western_embedding/ToInt64_1"
  op: "Cast"
  input: "dnn/input_from_feature_columns/input_layer/Action_X_Adventure_X_Animation_X_Children_X_Comedy_X_Crime_X_Documentary_X_Drama_X_Fantasy_X_Film-Noir_X_Horror_X_IMAX_X_Musical_X_Mystery_X_Romance_X_Sci-Fi_X_Thriller_X_War_X_Western_embedding/ToInt64_1/x"
  attr {
    key: "DstT"
    value {
      type: DT_INT64
    }
  }
  attr {
    key: "SrcT"
    value {
      type: DT_INT32
    }
  }
  attr {
    key: "_output_shapes"
    value {
      list {
        shape {
        }
      }
    }
  }
}
node {
  name: "dnn/input_from_feature_columns/input_layer/Action_X_Adventure_X_Animation_X_Children_X_Comedy_X_Crime_X_Documentary_X_Drama_X_Fantasy_X_Film-Noir_X_Horror_X_IMAX_X_Musical_X_Mystery_X_Romance_X_Sci-Fi_X_Thriller_X_War_X_Western_embedding/default_values_1"
  op: "Fill"
  input: "dnn/input_from_feature_columns/input_layer/Action_X_Adventure_X_Animation_X_Children_X_Comedy_X_Crime_X_Documentary_X_Drama_X_Fantasy_X_Film-Noir_X_Horror_X_IMAX_X_Musical_X_Mystery_X_Romance_X_Sci-Fi_X_Thriller_X_War_X_Western_embedding/Shape_1"
  input: "dnn/input_from_feature_columns/input_layer/Action_X_Adventure_X_Animation_X_Children_X_Comedy_X_Crime_X_Documentary_X_Drama_X_Fantasy_X_Film-Noir_X_Horror_X_IMAX_X_Musical_X_Mystery_X_Romance_X_Sci-Fi_X_Thriller_X_War_X_Western_embedding/ToInt64_1"
  attr {
    key: "T"
    value {
      type: DT_INT64
    }
  }
  attr {
    key: "_output_shapes"
    value {
      list {
        shape {
          dim {
            size: -1
          }
        }
      }
    }
  }
  attr {
    key: "index_type"
    value {
      type: DT_INT32
    }
  }
}
node {
  name: "dnn/input_from_feature_columns/input_layer/Action_X_Adventure_X_Animation_X_Children_X_Comedy_X_Crime_X_Documentary_X_Drama_X_Fantasy_X_Film-Noir_X_Horror_X_IMAX_X_Musical_X_Mystery_X_Romance_X_Sci-Fi_X_Thriller_X_War_X_Western_embedding/Select_1"
  op: "Select"
  input: "dnn/input_from_feature_columns/input_layer/Action_X_Adventure_X_Animation_X_Children_X_Comedy_X_Crime_X_Documentary_X_Drama_X_Fantasy_X_Film-Noir_X_Horror_X_IMAX_X_Musical_X_Mystery_X_Romance_X_Sci-Fi_X_Thriller_X_War_X_Western_embedding/out_of_range_1"
  input: "dnn/input_from_feature_columns/input_layer/Action_X_Adventure_X_Animation_X_Children_X_Comedy_X_Crime_X_Documentary_X_Drama_X_Fantasy_X_Film-Noir_X_Horror_X_IMAX_X_Musical_X_Mystery_X_Romance_X_Sci-Fi_X_Thriller_X_War_X_Western_embedding/default_values_1"
  input: "dnn/input_from_feature_columns/input_layer/Action_X_Adventure_X_Animation_X_Children_X_Comedy_X_Crime_X_Documentary_X_Drama_X_Fantasy_X_Film-Noir_X_Horror_X_IMAX_X_Musical_X_Mystery_X_Romance_X_Sci-Fi_X_Thriller_X_War_X_Western_embedding/to_sparse_input_1/values"
  attr {
    key: "T"
    value {
      type: DT_INT64
    }
  }
  attr {
    key: "_output_shapes"
    value {
      list {
        shape {
          dim {
            size: -1
          }
        }
      }
    }
  }
}
node {
  name: "dnn/input_from_feature_columns/input_layer/Action_X_Adventure_X_Animation_X_Children_X_Comedy_X_Crime_X_Documentary_X_Drama_X_Fantasy_X_Film-Noir_X_Horror_X_IMAX_X_Musical_X_Mystery_X_Romance_X_Sci-Fi_X_Thriller_X_War_X_Western_embedding/ExpandDims_2/dim"
  op: "Const"
  attr {
    key: "_output_shapes"
    value {
      list {
        shape {
        }
      }
    }
  }
  attr {
    key: "dtype"
    value {
      type: DT_INT32
    }
  }
  attr {
    key: "value"
    value {
      tensor {
        dtype: DT_INT32
        tensor_shape {
        }
        int_val: -1
      }
    }
  }
}
node {
  name: "dnn/input_from_feature_columns/input_layer/Action_X_Adventure_X_Animation_X_Children_X_Comedy_X_Crime_X_Documentary_X_Drama_X_Fantasy_X_Film-Noir_X_Horror_X_IMAX_X_Musical_X_Mystery_X_Romance_X_Sci-Fi_X_Thriller_X_War_X_Western_embedding/ExpandDims_2"
  op: "ExpandDims"
  input: "random_shuffle_queue_DequeueUpTo:6"
  input: "dnn/input_from_feature_columns/input_layer/Action_X_Adventure_X_Animation_X_Children_X_Comedy_X_Crime_X_Documentary_X_Drama_X_Fantasy_X_Film-Noir_X_Horror_X_IMAX_X_Musical_X_Mystery_X_Romance_X_Sci-Fi_X_Thriller_X_War_X_Western_embedding/ExpandDims_2/dim"
  attr {
    key: "T"
    value {
      type: DT_INT64
    }
  }
  attr {
    key: "Tdim"
    value {
      type: DT_INT32
    }
  }
  attr {
    key: "_output_shapes"
    value {
      list {
        shape {
          dim {
            size: -1
          }
          dim {
            size: 1
          }
        }
      }
    }
  }
}
node {
  name: "dnn/input_from_feature_columns/input_layer/Action_X_Adventure_X_Animation_X_Children_X_Comedy_X_Crime_X_Documentary_X_Drama_X_Fantasy_X_Film-Noir_X_Horror_X_IMAX_X_Musical_X_Mystery_X_Romance_X_Sci-Fi_X_Thriller_X_War_X_Western_embedding/to_sparse_input_2/ignore_value/x"
  op: "Const"
  attr {
    key: "_output_shapes"
    value {
      list {
        shape {
        }
      }
    }
  }
  attr {
    key: "dtype"
    value {
      type: DT_INT32
    }
  }
  attr {
    key: "value"
    value {
      tensor {
        dtype: DT_INT32
        tensor_shape {
        }
        int_val: -1
      }
    }
  }
}
node {
  name: "dnn/input_from_feature_columns/input_layer/Action_X_Adventure_X_Animation_X_Children_X_Comedy_X_Crime_X_Documentary_X_Drama_X_Fantasy_X_Film-Noir_X_Horror_X_IMAX_X_Musical_X_Mystery_X_Romance_X_Sci-Fi_X_Thriller_X_War_X_Western_embedding/to_sparse_input_2/ignore_value"
  op: "Cast"
  input: "dnn/input_from_feature_columns/input_layer/Action_X_Adventure_X_Animation_X_Children_X_Comedy_X_Crime_X_Documentary_X_Drama_X_Fantasy_X_Film-Noir_X_Horror_X_IMAX_X_Musical_X_Mystery_X_Romance_X_Sci-Fi_X_Thriller_X_War_X_Western_embedding/to_sparse_input_2/ignore_value/x"
  attr {
    key: "DstT"
    value {
      type: DT_INT64
    }
  }
  attr {
    key: "SrcT"
    value {
      type: DT_INT32
    }
  }
  attr {
    key: "_output_shapes"
    value {
      list {
        shape {
        }
      }
    }
  }
}
node {
  name: "dnn/input_from_feature_columns/input_layer/Action_X_Adventure_X_Animation_X_Children_X_Comedy_X_Crime_X_Documentary_X_Drama_X_Fantasy_X_Film-Noir_X_Horror_X_IMAX_X_Musical_X_Mystery_X_Romance_X_Sci-Fi_X_Thriller_X_War_X_Western_embedding/to_sparse_input_2/NotEqual"
  op: "NotEqual"
  input: "dnn/input_from_feature_columns/input_layer/Action_X_Adventure_X_Animation_X_Children_X_Comedy_X_Crime_X_Documentary_X_Drama_X_Fantasy_X_Film-Noir_X_Horror_X_IMAX_X_Musical_X_Mystery_X_Romance_X_Sci-Fi_X_Thriller_X_War_X_Western_embedding/ExpandDims_2"
  input: "dnn/input_from_feature_columns/input_layer/Action_X_Adventure_X_Animation_X_Children_X_Comedy_X_Crime_X_Documentary_X_Drama_X_Fantasy_X_Film-Noir_X_Horror_X_IMAX_X_Musical_X_Mystery_X_Romance_X_Sci-Fi_X_Thriller_X_War_X_Western_embedding/to_sparse_input_2/ignore_value"
  attr {
    key: "T"
    value {
      type: DT_INT64
    }
  }
  attr {
    key: "_output_shapes"
    value {
      list {
        shape {
          dim {
            size: -1
          }
          dim {
            size: 1
          }
        }
      }
    }
  }
}
node {
  name: "dnn/input_from_feature_columns/input_layer/Action_X_Adventure_X_Animation_X_Children_X_Comedy_X_Crime_X_Documentary_X_Drama_X_Fantasy_X_Film-Noir_X_Horror_X_IMAX_X_Musical_X_Mystery_X_Romance_X_Sci-Fi_X_Thriller_X_War_X_Western_embedding/to_sparse_input_2/indices"
  op: "Where"
  input: "dnn/input_from_feature_columns/input_layer/Action_X_Adventure_X_Animation_X_Children_X_Comedy_X_Crime_X_Documentary_X_Drama_X_Fantasy_X_Film-Noir_X_Horror_X_IMAX_X_Musical_X_Mystery_X_Romance_X_Sci-Fi_X_Thriller_X_War_X_Western_embedding/to_sparse_input_2/NotEqual"
  attr {
    key: "T"
    value {
      type: DT_BOOL
    }
  }
  attr {
    key: "_output_shapes"
    value {
      list {
        shape {
          dim {
            size: -1
          }
          dim {
            size: 2
          }
        }
      }
    }
  }
}
node {
  name: "dnn/input_from_feature_columns/input_layer/Action_X_Adventure_X_Animation_X_Children_X_Comedy_X_Crime_X_Documentary_X_Drama_X_Fantasy_X_Film-Noir_X_Horror_X_IMAX_X_Musical_X_Mystery_X_Romance_X_Sci-Fi_X_Thriller_X_War_X_Western_embedding/to_sparse_input_2/values"
  op: "GatherNd"
  input: "dnn/input_from_feature_columns/input_layer/Action_X_Adventure_X_Animation_X_Children_X_Comedy_X_Crime_X_Documentary_X_Drama_X_Fantasy_X_Film-Noir_X_Horror_X_IMAX_X_Musical_X_Mystery_X_Romance_X_Sci-Fi_X_Thriller_X_War_X_Western_embedding/ExpandDims_2"
  input: "dnn/input_from_feature_columns/input_layer/Action_X_Adventure_X_Animation_X_Children_X_Comedy_X_Crime_X_Documentary_X_Drama_X_Fantasy_X_Film-Noir_X_Horror_X_IMAX_X_Musical_X_Mystery_X_Romance_X_Sci-Fi_X_Thriller_X_War_X_Western_embedding/to_sparse_input_2/indices"
  attr {
    key: "Tindices"
    value {
      type: DT_INT64
    }
  }
  attr {
    key: "Tparams"
    value {
      type: DT_INT64
    }
  }
  attr {
    key: "_output_shapes"
    value {
      list {
        shape {
          dim {
            size: -1
          }
        }
      }
    }
  }
}
node {
  name: "dnn/input_from_feature_columns/input_layer/Action_X_Adventure_X_Animation_X_Children_X_Comedy_X_Crime_X_Documentary_X_Drama_X_Fantasy_X_Film-Noir_X_Horror_X_IMAX_X_Musical_X_Mystery_X_Romance_X_Sci-Fi_X_Thriller_X_War_X_Western_embedding/to_sparse_input_2/dense_shape"
  op: "Shape"
  input: "dnn/input_from_feature_columns/input_layer/Action_X_Adventure_X_Animation_X_Children_X_Comedy_X_Crime_X_Documentary_X_Drama_X_Fantasy_X_Film-Noir_X_Horror_X_IMAX_X_Musical_X_Mystery_X_Romance_X_Sci-Fi_X_Thriller_X_War_X_Western_embedding/ExpandDims_2"
  attr {
    key: "T"
    value {
      type: DT_INT64
    }
  }
  attr {
    key: "_output_shapes"
    value {
      list {
        shape {
          dim {
            size: 2
          }
        }
      }
    }
  }
  attr {
    key: "out_type"
    value {
      type: DT_INT64
    }
  }
}
node {
  name: "dnn/input_from_feature_columns/input_layer/Action_X_Adventure_X_Animation_X_Children_X_Comedy_X_Crime_X_Documentary_X_Drama_X_Fantasy_X_Film-Noir_X_Horror_X_IMAX_X_Musical_X_Mystery_X_Romance_X_Sci-Fi_X_Thriller_X_War_X_Western_embedding/num_buckets_2/x"
  op: "Const"
  attr {
    key: "_output_shapes"
    value {
      list {
        shape {
        }
      }
    }
  }
  attr {
    key: "dtype"
    value {
      type: DT_INT32
    }
  }
  attr {
    key: "value"
    value {
      tensor {
        dtype: DT_INT32
        tensor_shape {
        }
        int_val: 2
      }
    }
  }
}
node {
  name: "dnn/input_from_feature_columns/input_layer/Action_X_Adventure_X_Animation_X_Children_X_Comedy_X_Crime_X_Documentary_X_Drama_X_Fantasy_X_Film-Noir_X_Horror_X_IMAX_X_Musical_X_Mystery_X_Romance_X_Sci-Fi_X_Thriller_X_War_X_Western_embedding/num_buckets_2"
  op: "Cast"
  input: "dnn/input_from_feature_columns/input_layer/Action_X_Adventure_X_Animation_X_Children_X_Comedy_X_Crime_X_Documentary_X_Drama_X_Fantasy_X_Film-Noir_X_Horror_X_IMAX_X_Musical_X_Mystery_X_Romance_X_Sci-Fi_X_Thriller_X_War_X_Western_embedding/num_buckets_2/x"
  attr {
    key: "DstT"
    value {
      type: DT_INT64
    }
  }
  attr {
    key: "SrcT"
    value {
      type: DT_INT32
    }
  }
  attr {
    key: "_output_shapes"
    value {
      list {
        shape {
        }
      }
    }
  }
}
node {
  name: "dnn/input_from_feature_columns/input_layer/Action_X_Adventure_X_Animation_X_Children_X_Comedy_X_Crime_X_Documentary_X_Drama_X_Fantasy_X_Film-Noir_X_Horror_X_IMAX_X_Musical_X_Mystery_X_Romance_X_Sci-Fi_X_Thriller_X_War_X_Western_embedding/zero_2/x"
  op: "Const"
  attr {
    key: "_output_shapes"
    value {
      list {
        shape {
        }
      }
    }
  }
  attr {
    key: "dtype"
    value {
      type: DT_INT32
    }
  }
  attr {
    key: "value"
    value {
      tensor {
        dtype: DT_INT32
        tensor_shape {
        }
        int_val: 0
      }
    }
  }
}
node {
  name: "dnn/input_from_feature_columns/input_layer/Action_X_Adventure_X_Animation_X_Children_X_Comedy_X_Crime_X_Documentary_X_Drama_X_Fantasy_X_Film-Noir_X_Horror_X_IMAX_X_Musical_X_Mystery_X_Romance_X_Sci-Fi_X_Thriller_X_War_X_Western_embedding/zero_2"
  op: "Cast"
  input: "dnn/input_from_feature_columns/input_layer/Action_X_Adventure_X_Animation_X_Children_X_Comedy_X_Crime_X_Documentary_X_Drama_X_Fantasy_X_Film-Noir_X_Horror_X_IMAX_X_Musical_X_Mystery_X_Romance_X_Sci-Fi_X_Thriller_X_War_X_Western_embedding/zero_2/x"
  attr {
    key: "DstT"
    value {
      type: DT_INT64
    }
  }
  attr {
    key: "SrcT"
    value {
      type: DT_INT32
    }
  }
  attr {
    key: "_output_shapes"
    value {
      list {
        shape {
        }
      }
    }
  }
}
node {
  name: "dnn/input_from_feature_columns/input_layer/Action_X_Adventure_X_Animation_X_Children_X_Comedy_X_Crime_X_Documentary_X_Drama_X_Fantasy_X_Film-Noir_X_Horror_X_IMAX_X_Musical_X_Mystery_X_Romance_X_Sci-Fi_X_Thriller_X_War_X_Western_embedding/Less_2"
  op: "Less"
  input: "dnn/input_from_feature_columns/input_layer/Action_X_Adventure_X_Animation_X_Children_X_Comedy_X_Crime_X_Documentary_X_Drama_X_Fantasy_X_Film-Noir_X_Horror_X_IMAX_X_Musical_X_Mystery_X_Romance_X_Sci-Fi_X_Thriller_X_War_X_Western_embedding/to_sparse_input_2/values"
  input: "dnn/input_from_feature_columns/input_layer/Action_X_Adventure_X_Animation_X_Children_X_Comedy_X_Crime_X_Documentary_X_Drama_X_Fantasy_X_Film-Noir_X_Horror_X_IMAX_X_Musical_X_Mystery_X_Romance_X_Sci-Fi_X_Thriller_X_War_X_Western_embedding/zero_2"
  attr {
    key: "T"
    value {
      type: DT_INT64
    }
  }
  attr {
    key: "_output_shapes"
    value {
      list {
        shape {
          dim {
            size: -1
          }
        }
      }
    }
  }
}
node {
  name: "dnn/input_from_feature_columns/input_layer/Action_X_Adventure_X_Animation_X_Children_X_Comedy_X_Crime_X_Documentary_X_Drama_X_Fantasy_X_Film-Noir_X_Horror_X_IMAX_X_Musical_X_Mystery_X_Romance_X_Sci-Fi_X_Thriller_X_War_X_Western_embedding/GreaterEqual_2"
  op: "GreaterEqual"
  input: "dnn/input_from_feature_columns/input_layer/Action_X_Adventure_X_Animation_X_Children_X_Comedy_X_Crime_X_Documentary_X_Drama_X_Fantasy_X_Film-Noir_X_Horror_X_IMAX_X_Musical_X_Mystery_X_Romance_X_Sci-Fi_X_Thriller_X_War_X_Western_embedding/to_sparse_input_2/values"
  input: "dnn/input_from_feature_columns/input_layer/Action_X_Adventure_X_Animation_X_Children_X_Comedy_X_Crime_X_Documentary_X_Drama_X_Fantasy_X_Film-Noir_X_Horror_X_IMAX_X_Musical_X_Mystery_X_Romance_X_Sci-Fi_X_Thriller_X_War_X_Western_embedding/num_buckets_2"
  attr {
    key: "T"
    value {
      type: DT_INT64
    }
  }
  attr {
    key: "_output_shapes"
    value {
      list {
        shape {
          dim {
            size: -1
          }
        }
      }
    }
  }
}
node {
  name: "dnn/input_from_feature_columns/input_layer/Action_X_Adventure_X_Animation_X_Children_X_Comedy_X_Crime_X_Documentary_X_Drama_X_Fantasy_X_Film-Noir_X_Horror_X_IMAX_X_Musical_X_Mystery_X_Romance_X_Sci-Fi_X_Thriller_X_War_X_Western_embedding/out_of_range_2"
  op: "LogicalOr"
  input: "dnn/input_from_feature_columns/input_layer/Action_X_Adventure_X_Animation_X_Children_X_Comedy_X_Crime_X_Documentary_X_Drama_X_Fantasy_X_Film-Noir_X_Horror_X_IMAX_X_Musical_X_Mystery_X_Romance_X_Sci-Fi_X_Thriller_X_War_X_Western_embedding/Less_2"
  input: "dnn/input_from_feature_columns/input_layer/Action_X_Adventure_X_Animation_X_Children_X_Comedy_X_Crime_X_Documentary_X_Drama_X_Fantasy_X_Film-Noir_X_Horror_X_IMAX_X_Musical_X_Mystery_X_Romance_X_Sci-Fi_X_Thriller_X_War_X_Western_embedding/GreaterEqual_2"
  attr {
    key: "_output_shapes"
    value {
      list {
        shape {
          dim {
            size: -1
          }
        }
      }
    }
  }
}
node {
  name: "dnn/input_from_feature_columns/input_layer/Action_X_Adventure_X_Animation_X_Children_X_Comedy_X_Crime_X_Documentary_X_Drama_X_Fantasy_X_Film-Noir_X_Horror_X_IMAX_X_Musical_X_Mystery_X_Romance_X_Sci-Fi_X_Thriller_X_War_X_Western_embedding/Shape_2"
  op: "Shape"
  input: "dnn/input_from_feature_columns/input_layer/Action_X_Adventure_X_Animation_X_Children_X_Comedy_X_Crime_X_Documentary_X_Drama_X_Fantasy_X_Film-Noir_X_Horror_X_IMAX_X_Musical_X_Mystery_X_Romance_X_Sci-Fi_X_Thriller_X_War_X_Western_embedding/to_sparse_input_2/values"
  attr {
    key: "T"
    value {
      type: DT_INT64
    }
  }
  attr {
    key: "_output_shapes"
    value {
      list {
        shape {
          dim {
            size: 1
          }
        }
      }
    }
  }
  attr {
    key: "out_type"
    value {
      type: DT_INT32
    }
  }
}
node {
  name: "dnn/input_from_feature_columns/input_layer/Action_X_Adventure_X_Animation_X_Children_X_Comedy_X_Crime_X_Documentary_X_Drama_X_Fantasy_X_Film-Noir_X_Horror_X_IMAX_X_Musical_X_Mystery_X_Romance_X_Sci-Fi_X_Thriller_X_War_X_Western_embedding/ToInt64_2/x"
  op: "Const"
  attr {
    key: "_output_shapes"
    value {
      list {
        shape {
        }
      }
    }
  }
  attr {
    key: "dtype"
    value {
      type: DT_INT32
    }
  }
  attr {
    key: "value"
    value {
      tensor {
        dtype: DT_INT32
        tensor_shape {
        }
        int_val: 0
      }
    }
  }
}
node {
  name: "dnn/input_from_feature_columns/input_layer/Action_X_Adventure_X_Animation_X_Children_X_Comedy_X_Crime_X_Documentary_X_Drama_X_Fantasy_X_Film-Noir_X_Horror_X_IMAX_X_Musical_X_Mystery_X_Romance_X_Sci-Fi_X_Thriller_X_War_X_Western_embedding/ToInt64_2"
  op: "Cast"
  input: "dnn/input_from_feature_columns/input_layer/Action_X_Adventure_X_Animation_X_Children_X_Comedy_X_Crime_X_Documentary_X_Drama_X_Fantasy_X_Film-Noir_X_Horror_X_IMAX_X_Musical_X_Mystery_X_Romance_X_Sci-Fi_X_Thriller_X_War_X_Western_embedding/ToInt64_2/x"
  attr {
    key: "DstT"
    value {
      type: DT_INT64
    }
  }
  attr {
    key: "SrcT"
    value {
      type: DT_INT32
    }
  }
  attr {
    key: "_output_shapes"
    value {
      list {
        shape {
        }
      }
    }
  }
}
node {
  name: "dnn/input_from_feature_columns/input_layer/Action_X_Adventure_X_Animation_X_Children_X_Comedy_X_Crime_X_Documentary_X_Drama_X_Fantasy_X_Film-Noir_X_Horror_X_IMAX_X_Musical_X_Mystery_X_Romance_X_Sci-Fi_X_Thriller_X_War_X_Western_embedding/default_values_2"
  op: "Fill"
  input: "dnn/input_from_feature_columns/input_layer/Action_X_Adventure_X_Animation_X_Children_X_Comedy_X_Crime_X_Documentary_X_Drama_X_Fantasy_X_Film-Noir_X_Horror_X_IMAX_X_Musical_X_Mystery_X_Romance_X_Sci-Fi_X_Thriller_X_War_X_Western_embedding/Shape_2"
  input: "dnn/input_from_feature_columns/input_layer/Action_X_Adventure_X_Animation_X_Children_X_Comedy_X_Crime_X_Documentary_X_Drama_X_Fantasy_X_Film-Noir_X_Horror_X_IMAX_X_Musical_X_Mystery_X_Romance_X_Sci-Fi_X_Thriller_X_War_X_Western_embedding/ToInt64_2"
  attr {
    key: "T"
    value {
      type: DT_INT64
    }
  }
  attr {
    key: "_output_shapes"
    value {
      list {
        shape {
          dim {
            size: -1
          }
        }
      }
    }
  }
  attr {
    key: "index_type"
    value {
      type: DT_INT32
    }
  }
}
node {
  name: "dnn/input_from_feature_columns/input_layer/Action_X_Adventure_X_Animation_X_Children_X_Comedy_X_Crime_X_Documentary_X_Drama_X_Fantasy_X_Film-Noir_X_Horror_X_IMAX_X_Musical_X_Mystery_X_Romance_X_Sci-Fi_X_Thriller_X_War_X_Western_embedding/Select_2"
  op: "Select"
  input: "dnn/input_from_feature_columns/input_layer/Action_X_Adventure_X_Animation_X_Children_X_Comedy_X_Crime_X_Documentary_X_Drama_X_Fantasy_X_Film-Noir_X_Horror_X_IMAX_X_Musical_X_Mystery_X_Romance_X_Sci-Fi_X_Thriller_X_War_X_Western_embedding/out_of_range_2"
  input: "dnn/input_from_feature_columns/input_layer/Action_X_Adventure_X_Animation_X_Children_X_Comedy_X_Crime_X_Documentary_X_Drama_X_Fantasy_X_Film-Noir_X_Horror_X_IMAX_X_Musical_X_Mystery_X_Romance_X_Sci-Fi_X_Thriller_X_War_X_Western_embedding/default_values_2"
  input: "dnn/input_from_feature_columns/input_layer/Action_X_Adventure_X_Animation_X_Children_X_Comedy_X_Crime_X_Documentary_X_Drama_X_Fantasy_X_Film-Noir_X_Horror_X_IMAX_X_Musical_X_Mystery_X_Romance_X_Sci-Fi_X_Thriller_X_War_X_Western_embedding/to_sparse_input_2/values"
  attr {
    key: "T"
    value {
      type: DT_INT64
    }
  }
  attr {
    key: "_output_shapes"
    value {
      list {
        shape {
          dim {
            size: -1
          }
        }
      }
    }
  }
}
node {
  name: "dnn/input_from_feature_columns/input_layer/Action_X_Adventure_X_Animation_X_Children_X_Comedy_X_Crime_X_Documentary_X_Drama_X_Fantasy_X_Film-Noir_X_Horror_X_IMAX_X_Musical_X_Mystery_X_Romance_X_Sci-Fi_X_Thriller_X_War_X_Western_embedding/ExpandDims_3/dim"
  op: "Const"
  attr {
    key: "_output_shapes"
    value {
      list {
        shape {
        }
      }
    }
  }
  attr {
    key: "dtype"
    value {
      type: DT_INT32
    }
  }
  attr {
    key: "value"
    value {
      tensor {
        dtype: DT_INT32
        tensor_shape {
        }
        int_val: -1
      }
    }
  }
}
node {
  name: "dnn/input_from_feature_columns/input_layer/Action_X_Adventure_X_Animation_X_Children_X_Comedy_X_Crime_X_Documentary_X_Drama_X_Fantasy_X_Film-Noir_X_Horror_X_IMAX_X_Musical_X_Mystery_X_Romance_X_Sci-Fi_X_Thriller_X_War_X_Western_embedding/ExpandDims_3"
  op: "ExpandDims"
  input: "random_shuffle_queue_DequeueUpTo:7"
  input: "dnn/input_from_feature_columns/input_layer/Action_X_Adventure_X_Animation_X_Children_X_Comedy_X_Crime_X_Documentary_X_Drama_X_Fantasy_X_Film-Noir_X_Horror_X_IMAX_X_Musical_X_Mystery_X_Romance_X_Sci-Fi_X_Thriller_X_War_X_Western_embedding/ExpandDims_3/dim"
  attr {
    key: "T"
    value {
      type: DT_INT64
    }
  }
  attr {
    key: "Tdim"
    value {
      type: DT_INT32
    }
  }
  attr {
    key: "_output_shapes"
    value {
      list {
        shape {
          dim {
            size: -1
          }
          dim {
            size: 1
          }
        }
      }
    }
  }
}
node {
  name: "dnn/input_from_feature_columns/input_layer/Action_X_Adventure_X_Animation_X_Children_X_Comedy_X_Crime_X_Documentary_X_Drama_X_Fantasy_X_Film-Noir_X_Horror_X_IMAX_X_Musical_X_Mystery_X_Romance_X_Sci-Fi_X_Thriller_X_War_X_Western_embedding/to_sparse_input_3/ignore_value/x"
  op: "Const"
  attr {
    key: "_output_shapes"
    value {
      list {
        shape {
        }
      }
    }
  }
  attr {
    key: "dtype"
    value {
      type: DT_INT32
    }
  }
  attr {
    key: "value"
    value {
      tensor {
        dtype: DT_INT32
        tensor_shape {
        }
        int_val: -1
      }
    }
  }
}
node {
  name: "dnn/input_from_feature_columns/input_layer/Action_X_Adventure_X_Animation_X_Children_X_Comedy_X_Crime_X_Documentary_X_Drama_X_Fantasy_X_Film-Noir_X_Horror_X_IMAX_X_Musical_X_Mystery_X_Romance_X_Sci-Fi_X_Thriller_X_War_X_Western_embedding/to_sparse_input_3/ignore_value"
  op: "Cast"
  input: "dnn/input_from_feature_columns/input_layer/Action_X_Adventure_X_Animation_X_Children_X_Comedy_X_Crime_X_Documentary_X_Drama_X_Fantasy_X_Film-Noir_X_Horror_X_IMAX_X_Musical_X_Mystery_X_Romance_X_Sci-Fi_X_Thriller_X_War_X_Western_embedding/to_sparse_input_3/ignore_value/x"
  attr {
    key: "DstT"
    value {
      type: DT_INT64
    }
  }
  attr {
    key: "SrcT"
    value {
      type: DT_INT32
    }
  }
  attr {
    key: "_output_shapes"
    value {
      list {
        shape {
        }
      }
    }
  }
}
node {
  name: "dnn/input_from_feature_columns/input_layer/Action_X_Adventure_X_Animation_X_Children_X_Comedy_X_Crime_X_Documentary_X_Drama_X_Fantasy_X_Film-Noir_X_Horror_X_IMAX_X_Musical_X_Mystery_X_Romance_X_Sci-Fi_X_Thriller_X_War_X_Western_embedding/to_sparse_input_3/NotEqual"
  op: "NotEqual"
  input: "dnn/input_from_feature_columns/input_layer/Action_X_Adventure_X_Animation_X_Children_X_Comedy_X_Crime_X_Documentary_X_Drama_X_Fantasy_X_Film-Noir_X_Horror_X_IMAX_X_Musical_X_Mystery_X_Romance_X_Sci-Fi_X_Thriller_X_War_X_Western_embedding/ExpandDims_3"
  input: "dnn/input_from_feature_columns/input_layer/Action_X_Adventure_X_Animation_X_Children_X_Comedy_X_Crime_X_Documentary_X_Drama_X_Fantasy_X_Film-Noir_X_Horror_X_IMAX_X_Musical_X_Mystery_X_Romance_X_Sci-Fi_X_Thriller_X_War_X_Western_embedding/to_sparse_input_3/ignore_value"
  attr {
    key: "T"
    value {
      type: DT_INT64
    }
  }
  attr {
    key: "_output_shapes"
    value {
      list {
        shape {
          dim {
            size: -1
          }
          dim {
            size: 1
          }
        }
      }
    }
  }
}
node {
  name: "dnn/input_from_feature_columns/input_layer/Action_X_Adventure_X_Animation_X_Children_X_Comedy_X_Crime_X_Documentary_X_Drama_X_Fantasy_X_Film-Noir_X_Horror_X_IMAX_X_Musical_X_Mystery_X_Romance_X_Sci-Fi_X_Thriller_X_War_X_Western_embedding/to_sparse_input_3/indices"
  op: "Where"
  input: "dnn/input_from_feature_columns/input_layer/Action_X_Adventure_X_Animation_X_Children_X_Comedy_X_Crime_X_Documentary_X_Drama_X_Fantasy_X_Film-Noir_X_Horror_X_IMAX_X_Musical_X_Mystery_X_Romance_X_Sci-Fi_X_Thriller_X_War_X_Western_embedding/to_sparse_input_3/NotEqual"
  attr {
    key: "T"
    value {
      type: DT_BOOL
    }
  }
  attr {
    key: "_output_shapes"
    value {
      list {
        shape {
          dim {
            size: -1
          }
          dim {
            size: 2
          }
        }
      }
    }
  }
}
node {
  name: "dnn/input_from_feature_columns/input_layer/Action_X_Adventure_X_Animation_X_Children_X_Comedy_X_Crime_X_Documentary_X_Drama_X_Fantasy_X_Film-Noir_X_Horror_X_IMAX_X_Musical_X_Mystery_X_Romance_X_Sci-Fi_X_Thriller_X_War_X_Western_embedding/to_sparse_input_3/values"
  op: "GatherNd"
  input: "dnn/input_from_feature_columns/input_layer/Action_X_Adventure_X_Animation_X_Children_X_Comedy_X_Crime_X_Documentary_X_Drama_X_Fantasy_X_Film-Noir_X_Horror_X_IMAX_X_Musical_X_Mystery_X_Romance_X_Sci-Fi_X_Thriller_X_War_X_Western_embedding/ExpandDims_3"
  input: "dnn/input_from_feature_columns/input_layer/Action_X_Adventure_X_Animation_X_Children_X_Comedy_X_Crime_X_Documentary_X_Drama_X_Fantasy_X_Film-Noir_X_Horror_X_IMAX_X_Musical_X_Mystery_X_Romance_X_Sci-Fi_X_Thriller_X_War_X_Western_embedding/to_sparse_input_3/indices"
  attr {
    key: "Tindices"
    value {
      type: DT_INT64
    }
  }
  attr {
    key: "Tparams"
    value {
      type: DT_INT64
    }
  }
  attr {
    key: "_output_shapes"
    value {
      list {
        shape {
          dim {
            size: -1
          }
        }
      }
    }
  }
}
node {
  name: "dnn/input_from_feature_columns/input_layer/Action_X_Adventure_X_Animation_X_Children_X_Comedy_X_Crime_X_Documentary_X_Drama_X_Fantasy_X_Film-Noir_X_Horror_X_IMAX_X_Musical_X_Mystery_X_Romance_X_Sci-Fi_X_Thriller_X_War_X_Western_embedding/to_sparse_input_3/dense_shape"
  op: "Shape"
  input: "dnn/input_from_feature_columns/input_layer/Action_X_Adventure_X_Animation_X_Children_X_Comedy_X_Crime_X_Documentary_X_Drama_X_Fantasy_X_Film-Noir_X_Horror_X_IMAX_X_Musical_X_Mystery_X_Romance_X_Sci-Fi_X_Thriller_X_War_X_Western_embedding/ExpandDims_3"
  attr {
    key: "T"
    value {
      type: DT_INT64
    }
  }
  attr {
    key: "_output_shapes"
    value {
      list {
        shape {
          dim {
            size: 2
          }
        }
      }
    }
  }
  attr {
    key: "out_type"
    value {
      type: DT_INT64
    }
  }
}
node {
  name: "dnn/input_from_feature_columns/input_layer/Action_X_Adventure_X_Animation_X_Children_X_Comedy_X_Crime_X_Documentary_X_Drama_X_Fantasy_X_Film-Noir_X_Horror_X_IMAX_X_Musical_X_Mystery_X_Romance_X_Sci-Fi_X_Thriller_X_War_X_Western_embedding/num_buckets_3/x"
  op: "Const"
  attr {
    key: "_output_shapes"
    value {
      list {
        shape {
        }
      }
    }
  }
  attr {
    key: "dtype"
    value {
      type: DT_INT32
    }
  }
  attr {
    key: "value"
    value {
      tensor {
        dtype: DT_INT32
        tensor_shape {
        }
        int_val: 2
      }
    }
  }
}
node {
  name: "dnn/input_from_feature_columns/input_layer/Action_X_Adventure_X_Animation_X_Children_X_Comedy_X_Crime_X_Documentary_X_Drama_X_Fantasy_X_Film-Noir_X_Horror_X_IMAX_X_Musical_X_Mystery_X_Romance_X_Sci-Fi_X_Thriller_X_War_X_Western_embedding/num_buckets_3"
  op: "Cast"
  input: "dnn/input_from_feature_columns/input_layer/Action_X_Adventure_X_Animation_X_Children_X_Comedy_X_Crime_X_Documentary_X_Drama_X_Fantasy_X_Film-Noir_X_Horror_X_IMAX_X_Musical_X_Mystery_X_Romance_X_Sci-Fi_X_Thriller_X_War_X_Western_embedding/num_buckets_3/x"
  attr {
    key: "DstT"
    value {
      type: DT_INT64
    }
  }
  attr {
    key: "SrcT"
    value {
      type: DT_INT32
    }
  }
  attr {
    key: "_output_shapes"
    value {
      list {
        shape {
        }
      }
    }
  }
}
node {
  name: "dnn/input_from_feature_columns/input_layer/Action_X_Adventure_X_Animation_X_Children_X_Comedy_X_Crime_X_Documentary_X_Drama_X_Fantasy_X_Film-Noir_X_Horror_X_IMAX_X_Musical_X_Mystery_X_Romance_X_Sci-Fi_X_Thriller_X_War_X_Western_embedding/zero_3/x"
  op: "Const"
  attr {
    key: "_output_shapes"
    value {
      list {
        shape {
        }
      }
    }
  }
  attr {
    key: "dtype"
    value {
      type: DT_INT32
    }
  }
  attr {
    key: "value"
    value {
      tensor {
        dtype: DT_INT32
        tensor_shape {
        }
        int_val: 0
      }
    }
  }
}
node {
  name: "dnn/input_from_feature_columns/input_layer/Action_X_Adventure_X_Animation_X_Children_X_Comedy_X_Crime_X_Documentary_X_Drama_X_Fantasy_X_Film-Noir_X_Horror_X_IMAX_X_Musical_X_Mystery_X_Romance_X_Sci-Fi_X_Thriller_X_War_X_Western_embedding/zero_3"
  op: "Cast"
  input: "dnn/input_from_feature_columns/input_layer/Action_X_Adventure_X_Animation_X_Children_X_Comedy_X_Crime_X_Documentary_X_Drama_X_Fantasy_X_Film-Noir_X_Horror_X_IMAX_X_Musical_X_Mystery_X_Romance_X_Sci-Fi_X_Thriller_X_War_X_Western_embedding/zero_3/x"
  attr {
    key: "DstT"
    value {
      type: DT_INT64
    }
  }
  attr {
    key: "SrcT"
    value {
      type: DT_INT32
    }
  }
  attr {
    key: "_output_shapes"
    value {
      list {
        shape {
        }
      }
    }
  }
}
node {
  name: "dnn/input_from_feature_columns/input_layer/Action_X_Adventure_X_Animation_X_Children_X_Comedy_X_Crime_X_Documentary_X_Drama_X_Fantasy_X_Film-Noir_X_Horror_X_IMAX_X_Musical_X_Mystery_X_Romance_X_Sci-Fi_X_Thriller_X_War_X_Western_embedding/Less_3"
  op: "Less"
  input: "dnn/input_from_feature_columns/input_layer/Action_X_Adventure_X_Animation_X_Children_X_Comedy_X_Crime_X_Documentary_X_Drama_X_Fantasy_X_Film-Noir_X_Horror_X_IMAX_X_Musical_X_Mystery_X_Romance_X_Sci-Fi_X_Thriller_X_War_X_Western_embedding/to_sparse_input_3/values"
  input: "dnn/input_from_feature_columns/input_layer/Action_X_Adventure_X_Animation_X_Children_X_Comedy_X_Crime_X_Documentary_X_Drama_X_Fantasy_X_Film-Noir_X_Horror_X_IMAX_X_Musical_X_Mystery_X_Romance_X_Sci-Fi_X_Thriller_X_War_X_Western_embedding/zero_3"
  attr {
    key: "T"
    value {
      type: DT_INT64
    }
  }
  attr {
    key: "_output_shapes"
    value {
      list {
        shape {
          dim {
            size: -1
          }
        }
      }
    }
  }
}
node {
  name: "dnn/input_from_feature_columns/input_layer/Action_X_Adventure_X_Animation_X_Children_X_Comedy_X_Crime_X_Documentary_X_Drama_X_Fantasy_X_Film-Noir_X_Horror_X_IMAX_X_Musical_X_Mystery_X_Romance_X_Sci-Fi_X_Thriller_X_War_X_Western_embedding/GreaterEqual_3"
  op: "GreaterEqual"
  input: "dnn/input_from_feature_columns/input_layer/Action_X_Adventure_X_Animation_X_Children_X_Comedy_X_Crime_X_Documentary_X_Drama_X_Fantasy_X_Film-Noir_X_Horror_X_IMAX_X_Musical_X_Mystery_X_Romance_X_Sci-Fi_X_Thriller_X_War_X_Western_embedding/to_sparse_input_3/values"
  input: "dnn/input_from_feature_columns/input_layer/Action_X_Adventure_X_Animation_X_Children_X_Comedy_X_Crime_X_Documentary_X_Drama_X_Fantasy_X_Film-Noir_X_Horror_X_IMAX_X_Musical_X_Mystery_X_Romance_X_Sci-Fi_X_Thriller_X_War_X_Western_embedding/num_buckets_3"
  attr {
    key: "T"
    value {
      type: DT_INT64
    }
  }
  attr {
    key: "_output_shapes"
    value {
      list {
        shape {
          dim {
            size: -1
          }
        }
      }
    }
  }
}
node {
  name: "dnn/input_from_feature_columns/input_layer/Action_X_Adventure_X_Animation_X_Children_X_Comedy_X_Crime_X_Documentary_X_Drama_X_Fantasy_X_Film-Noir_X_Horror_X_IMAX_X_Musical_X_Mystery_X_Romance_X_Sci-Fi_X_Thriller_X_War_X_Western_embedding/out_of_range_3"
  op: "LogicalOr"
  input: "dnn/input_from_feature_columns/input_layer/Action_X_Adventure_X_Animation_X_Children_X_Comedy_X_Crime_X_Documentary_X_Drama_X_Fantasy_X_Film-Noir_X_Horror_X_IMAX_X_Musical_X_Mystery_X_Romance_X_Sci-Fi_X_Thriller_X_War_X_Western_embedding/Less_3"
  input: "dnn/input_from_feature_columns/input_layer/Action_X_Adventure_X_Animation_X_Children_X_Comedy_X_Crime_X_Documentary_X_Drama_X_Fantasy_X_Film-Noir_X_Horror_X_IMAX_X_Musical_X_Mystery_X_Romance_X_Sci-Fi_X_Thriller_X_War_X_Western_embedding/GreaterEqual_3"
  attr {
    key: "_output_shapes"
    value {
      list {
        shape {
          dim {
            size: -1
          }
        }
      }
    }
  }
}
node {
  name: "dnn/input_from_feature_columns/input_layer/Action_X_Adventure_X_Animation_X_Children_X_Comedy_X_Crime_X_Documentary_X_Drama_X_Fantasy_X_Film-Noir_X_Horror_X_IMAX_X_Musical_X_Mystery_X_Romance_X_Sci-Fi_X_Thriller_X_War_X_Western_embedding/Shape_3"
  op: "Shape"
  input: "dnn/input_from_feature_columns/input_layer/Action_X_Adventure_X_Animation_X_Children_X_Comedy_X_Crime_X_Documentary_X_Drama_X_Fantasy_X_Film-Noir_X_Horror_X_IMAX_X_Musical_X_Mystery_X_Romance_X_Sci-Fi_X_Thriller_X_War_X_Western_embedding/to_sparse_input_3/values"
  attr {
    key: "T"
    value {
      type: DT_INT64
    }
  }
  attr {
    key: "_output_shapes"
    value {
      list {
        shape {
          dim {
            size: 1
          }
        }
      }
    }
  }
  attr {
    key: "out_type"
    value {
      type: DT_INT32
    }
  }
}
node {
  name: "dnn/input_from_feature_columns/input_layer/Action_X_Adventure_X_Animation_X_Children_X_Comedy_X_Crime_X_Documentary_X_Drama_X_Fantasy_X_Film-Noir_X_Horror_X_IMAX_X_Musical_X_Mystery_X_Romance_X_Sci-Fi_X_Thriller_X_War_X_Western_embedding/ToInt64_3/x"
  op: "Const"
  attr {
    key: "_output_shapes"
    value {
      list {
        shape {
        }
      }
    }
  }
  attr {
    key: "dtype"
    value {
      type: DT_INT32
    }
  }
  attr {
    key: "value"
    value {
      tensor {
        dtype: DT_INT32
        tensor_shape {
        }
        int_val: 0
      }
    }
  }
}
node {
  name: "dnn/input_from_feature_columns/input_layer/Action_X_Adventure_X_Animation_X_Children_X_Comedy_X_Crime_X_Documentary_X_Drama_X_Fantasy_X_Film-Noir_X_Horror_X_IMAX_X_Musical_X_Mystery_X_Romance_X_Sci-Fi_X_Thriller_X_War_X_Western_embedding/ToInt64_3"
  op: "Cast"
  input: "dnn/input_from_feature_columns/input_layer/Action_X_Adventure_X_Animation_X_Children_X_Comedy_X_Crime_X_Documentary_X_Drama_X_Fantasy_X_Film-Noir_X_Horror_X_IMAX_X_Musical_X_Mystery_X_Romance_X_Sci-Fi_X_Thriller_X_War_X_Western_embedding/ToInt64_3/x"
  attr {
    key: "DstT"
    value {
      type: DT_INT64
    }
  }
  attr {
    key: "SrcT"
    value {
      type: DT_INT32
    }
  }
  attr {
    key: "_output_shapes"
    value {
      list {
        shape {
        }
      }
    }
  }
}
node {
  name: "dnn/input_from_feature_columns/input_layer/Action_X_Adventure_X_Animation_X_Children_X_Comedy_X_Crime_X_Documentary_X_Drama_X_Fantasy_X_Film-Noir_X_Horror_X_IMAX_X_Musical_X_Mystery_X_Romance_X_Sci-Fi_X_Thriller_X_War_X_Western_embedding/default_values_3"
  op: "Fill"
  input: "dnn/input_from_feature_columns/input_layer/Action_X_Adventure_X_Animation_X_Children_X_Comedy_X_Crime_X_Documentary_X_Drama_X_Fantasy_X_Film-Noir_X_Horror_X_IMAX_X_Musical_X_Mystery_X_Romance_X_Sci-Fi_X_Thriller_X_War_X_Western_embedding/Shape_3"
  input: "dnn/input_from_feature_columns/input_layer/Action_X_Adventure_X_Animation_X_Children_X_Comedy_X_Crime_X_Documentary_X_Drama_X_Fantasy_X_Film-Noir_X_Horror_X_IMAX_X_Musical_X_Mystery_X_Romance_X_Sci-Fi_X_Thriller_X_War_X_Western_embedding/ToInt64_3"
  attr {
    key: "T"
    value {
      type: DT_INT64
    }
  }
  attr {
    key: "_output_shapes"
    value {
      list {
        shape {
          dim {
            size: -1
          }
        }
      }
    }
  }
  attr {
    key: "index_type"
    value {
      type: DT_INT32
    }
  }
}
node {
  name: "dnn/input_from_feature_columns/input_layer/Action_X_Adventure_X_Animation_X_Children_X_Comedy_X_Crime_X_Documentary_X_Drama_X_Fantasy_X_Film-Noir_X_Horror_X_IMAX_X_Musical_X_Mystery_X_Romance_X_Sci-Fi_X_Thriller_X_War_X_Western_embedding/Select_3"
  op: "Select"
  input: "dnn/input_from_feature_columns/input_layer/Action_X_Adventure_X_Animation_X_Children_X_Comedy_X_Crime_X_Documentary_X_Drama_X_Fantasy_X_Film-Noir_X_Horror_X_IMAX_X_Musical_X_Mystery_X_Romance_X_Sci-Fi_X_Thriller_X_War_X_Western_embedding/out_of_range_3"
  input: "dnn/input_from_feature_columns/input_layer/Action_X_Adventure_X_Animation_X_Children_X_Comedy_X_Crime_X_Documentary_X_Drama_X_Fantasy_X_Film-Noir_X_Horror_X_IMAX_X_Musical_X_Mystery_X_Romance_X_Sci-Fi_X_Thriller_X_War_X_Western_embedding/default_values_3"
  input: "dnn/input_from_feature_columns/input_layer/Action_X_Adventure_X_Animation_X_Children_X_Comedy_X_Crime_X_Documentary_X_Drama_X_Fantasy_X_Film-Noir_X_Horror_X_IMAX_X_Musical_X_Mystery_X_Romance_X_Sci-Fi_X_Thriller_X_War_X_Western_embedding/to_sparse_input_3/values"
  attr {
    key: "T"
    value {
      type: DT_INT64
    }
  }
  attr {
    key: "_output_shapes"
    value {
      list {
        shape {
          dim {
            size: -1
          }
        }
      }
    }
  }
}
node {
  name: "dnn/input_from_feature_columns/input_layer/Action_X_Adventure_X_Animation_X_Children_X_Comedy_X_Crime_X_Documentary_X_Drama_X_Fantasy_X_Film-Noir_X_Horror_X_IMAX_X_Musical_X_Mystery_X_Romance_X_Sci-Fi_X_Thriller_X_War_X_Western_embedding/ExpandDims_4/dim"
  op: "Const"
  attr {
    key: "_output_shapes"
    value {
      list {
        shape {
        }
      }
    }
  }
  attr {
    key: "dtype"
    value {
      type: DT_INT32
    }
  }
  attr {
    key: "value"
    value {
      tensor {
        dtype: DT_INT32
        tensor_shape {
        }
        int_val: -1
      }
    }
  }
}
node {
  name: "dnn/input_from_feature_columns/input_layer/Action_X_Adventure_X_Animation_X_Children_X_Comedy_X_Crime_X_Documentary_X_Drama_X_Fantasy_X_Film-Noir_X_Horror_X_IMAX_X_Musical_X_Mystery_X_Romance_X_Sci-Fi_X_Thriller_X_War_X_Western_embedding/ExpandDims_4"
  op: "ExpandDims"
  input: "random_shuffle_queue_DequeueUpTo:8"
  input: "dnn/input_from_feature_columns/input_layer/Action_X_Adventure_X_Animation_X_Children_X_Comedy_X_Crime_X_Documentary_X_Drama_X_Fantasy_X_Film-Noir_X_Horror_X_IMAX_X_Musical_X_Mystery_X_Romance_X_Sci-Fi_X_Thriller_X_War_X_Western_embedding/ExpandDims_4/dim"
  attr {
    key: "T"
    value {
      type: DT_INT64
    }
  }
  attr {
    key: "Tdim"
    value {
      type: DT_INT32
    }
  }
  attr {
    key: "_output_shapes"
    value {
      list {
        shape {
          dim {
            size: -1
          }
          dim {
            size: 1
          }
        }
      }
    }
  }
}
node {
  name: "dnn/input_from_feature_columns/input_layer/Action_X_Adventure_X_Animation_X_Children_X_Comedy_X_Crime_X_Documentary_X_Drama_X_Fantasy_X_Film-Noir_X_Horror_X_IMAX_X_Musical_X_Mystery_X_Romance_X_Sci-Fi_X_Thriller_X_War_X_Western_embedding/to_sparse_input_4/ignore_value/x"
  op: "Const"
  attr {
    key: "_output_shapes"
    value {
      list {
        shape {
        }
      }
    }
  }
  attr {
    key: "dtype"
    value {
      type: DT_INT32
    }
  }
  attr {
    key: "value"
    value {
      tensor {
        dtype: DT_INT32
        tensor_shape {
        }
        int_val: -1
      }
    }
  }
}
node {
  name: "dnn/input_from_feature_columns/input_layer/Action_X_Adventure_X_Animation_X_Children_X_Comedy_X_Crime_X_Documentary_X_Drama_X_Fantasy_X_Film-Noir_X_Horror_X_IMAX_X_Musical_X_Mystery_X_Romance_X_Sci-Fi_X_Thriller_X_War_X_Western_embedding/to_sparse_input_4/ignore_value"
  op: "Cast"
  input: "dnn/input_from_feature_columns/input_layer/Action_X_Adventure_X_Animation_X_Children_X_Comedy_X_Crime_X_Documentary_X_Drama_X_Fantasy_X_Film-Noir_X_Horror_X_IMAX_X_Musical_X_Mystery_X_Romance_X_Sci-Fi_X_Thriller_X_War_X_Western_embedding/to_sparse_input_4/ignore_value/x"
  attr {
    key: "DstT"
    value {
      type: DT_INT64
    }
  }
  attr {
    key: "SrcT"
    value {
      type: DT_INT32
    }
  }
  attr {
    key: "_output_shapes"
    value {
      list {
        shape {
        }
      }
    }
  }
}
node {
  name: "dnn/input_from_feature_columns/input_layer/Action_X_Adventure_X_Animation_X_Children_X_Comedy_X_Crime_X_Documentary_X_Drama_X_Fantasy_X_Film-Noir_X_Horror_X_IMAX_X_Musical_X_Mystery_X_Romance_X_Sci-Fi_X_Thriller_X_War_X_Western_embedding/to_sparse_input_4/NotEqual"
  op: "NotEqual"
  input: "dnn/input_from_feature_columns/input_layer/Action_X_Adventure_X_Animation_X_Children_X_Comedy_X_Crime_X_Documentary_X_Drama_X_Fantasy_X_Film-Noir_X_Horror_X_IMAX_X_Musical_X_Mystery_X_Romance_X_Sci-Fi_X_Thriller_X_War_X_Western_embedding/ExpandDims_4"
  input: "dnn/input_from_feature_columns/input_layer/Action_X_Adventure_X_Animation_X_Children_X_Comedy_X_Crime_X_Documentary_X_Drama_X_Fantasy_X_Film-Noir_X_Horror_X_IMAX_X_Musical_X_Mystery_X_Romance_X_Sci-Fi_X_Thriller_X_War_X_Western_embedding/to_sparse_input_4/ignore_value"
  attr {
    key: "T"
    value {
      type: DT_INT64
    }
  }
  attr {
    key: "_output_shapes"
    value {
      list {
        shape {
          dim {
            size: -1
          }
          dim {
            size: 1
          }
        }
      }
    }
  }
}
node {
  name: "dnn/input_from_feature_columns/input_layer/Action_X_Adventure_X_Animation_X_Children_X_Comedy_X_Crime_X_Documentary_X_Drama_X_Fantasy_X_Film-Noir_X_Horror_X_IMAX_X_Musical_X_Mystery_X_Romance_X_Sci-Fi_X_Thriller_X_War_X_Western_embedding/to_sparse_input_4/indices"
  op: "Where"
  input: "dnn/input_from_feature_columns/input_layer/Action_X_Adventure_X_Animation_X_Children_X_Comedy_X_Crime_X_Documentary_X_Drama_X_Fantasy_X_Film-Noir_X_Horror_X_IMAX_X_Musical_X_Mystery_X_Romance_X_Sci-Fi_X_Thriller_X_War_X_Western_embedding/to_sparse_input_4/NotEqual"
  attr {
    key: "T"
    value {
      type: DT_BOOL
    }
  }
  attr {
    key: "_output_shapes"
    value {
      list {
        shape {
          dim {
            size: -1
          }
          dim {
            size: 2
          }
        }
      }
    }
  }
}
node {
  name: "dnn/input_from_feature_columns/input_layer/Action_X_Adventure_X_Animation_X_Children_X_Comedy_X_Crime_X_Documentary_X_Drama_X_Fantasy_X_Film-Noir_X_Horror_X_IMAX_X_Musical_X_Mystery_X_Romance_X_Sci-Fi_X_Thriller_X_War_X_Western_embedding/to_sparse_input_4/values"
  op: "GatherNd"
  input: "dnn/input_from_feature_columns/input_layer/Action_X_Adventure_X_Animation_X_Children_X_Comedy_X_Crime_X_Documentary_X_Drama_X_Fantasy_X_Film-Noir_X_Horror_X_IMAX_X_Musical_X_Mystery_X_Romance_X_Sci-Fi_X_Thriller_X_War_X_Western_embedding/ExpandDims_4"
  input: "dnn/input_from_feature_columns/input_layer/Action_X_Adventure_X_Animation_X_Children_X_Comedy_X_Crime_X_Documentary_X_Drama_X_Fantasy_X_Film-Noir_X_Horror_X_IMAX_X_Musical_X_Mystery_X_Romance_X_Sci-Fi_X_Thriller_X_War_X_Western_embedding/to_sparse_input_4/indices"
  attr {
    key: "Tindices"
    value {
      type: DT_INT64
    }
  }
  attr {
    key: "Tparams"
    value {
      type: DT_INT64
    }
  }
  attr {
    key: "_output_shapes"
    value {
      list {
        shape {
          dim {
            size: -1
          }
        }
      }
    }
  }
}
node {
  name: "dnn/input_from_feature_columns/input_layer/Action_X_Adventure_X_Animation_X_Children_X_Comedy_X_Crime_X_Documentary_X_Drama_X_Fantasy_X_Film-Noir_X_Horror_X_IMAX_X_Musical_X_Mystery_X_Romance_X_Sci-Fi_X_Thriller_X_War_X_Western_embedding/to_sparse_input_4/dense_shape"
  op: "Shape"
  input: "dnn/input_from_feature_columns/input_layer/Action_X_Adventure_X_Animation_X_Children_X_Comedy_X_Crime_X_Documentary_X_Drama_X_Fantasy_X_Film-Noir_X_Horror_X_IMAX_X_Musical_X_Mystery_X_Romance_X_Sci-Fi_X_Thriller_X_War_X_Western_embedding/ExpandDims_4"
  attr {
    key: "T"
    value {
      type: DT_INT64
    }
  }
  attr {
    key: "_output_shapes"
    value {
      list {
        shape {
          dim {
            size: 2
          }
        }
      }
    }
  }
  attr {
    key: "out_type"
    value {
      type: DT_INT64
    }
  }
}
node {
  name: "dnn/input_from_feature_columns/input_layer/Action_X_Adventure_X_Animation_X_Children_X_Comedy_X_Crime_X_Documentary_X_Drama_X_Fantasy_X_Film-Noir_X_Horror_X_IMAX_X_Musical_X_Mystery_X_Romance_X_Sci-Fi_X_Thriller_X_War_X_Western_embedding/num_buckets_4/x"
  op: "Const"
  attr {
    key: "_output_shapes"
    value {
      list {
        shape {
        }
      }
    }
  }
  attr {
    key: "dtype"
    value {
      type: DT_INT32
    }
  }
  attr {
    key: "value"
    value {
      tensor {
        dtype: DT_INT32
        tensor_shape {
        }
        int_val: 2
      }
    }
  }
}
node {
  name: "dnn/input_from_feature_columns/input_layer/Action_X_Adventure_X_Animation_X_Children_X_Comedy_X_Crime_X_Documentary_X_Drama_X_Fantasy_X_Film-Noir_X_Horror_X_IMAX_X_Musical_X_Mystery_X_Romance_X_Sci-Fi_X_Thriller_X_War_X_Western_embedding/num_buckets_4"
  op: "Cast"
  input: "dnn/input_from_feature_columns/input_layer/Action_X_Adventure_X_Animation_X_Children_X_Comedy_X_Crime_X_Documentary_X_Drama_X_Fantasy_X_Film-Noir_X_Horror_X_IMAX_X_Musical_X_Mystery_X_Romance_X_Sci-Fi_X_Thriller_X_War_X_Western_embedding/num_buckets_4/x"
  attr {
    key: "DstT"
    value {
      type: DT_INT64
    }
  }
  attr {
    key: "SrcT"
    value {
      type: DT_INT32
    }
  }
  attr {
    key: "_output_shapes"
    value {
      list {
        shape {
        }
      }
    }
  }
}
node {
  name: "dnn/input_from_feature_columns/input_layer/Action_X_Adventure_X_Animation_X_Children_X_Comedy_X_Crime_X_Documentary_X_Drama_X_Fantasy_X_Film-Noir_X_Horror_X_IMAX_X_Musical_X_Mystery_X_Romance_X_Sci-Fi_X_Thriller_X_War_X_Western_embedding/zero_4/x"
  op: "Const"
  attr {
    key: "_output_shapes"
    value {
      list {
        shape {
        }
      }
    }
  }
  attr {
    key: "dtype"
    value {
      type: DT_INT32
    }
  }
  attr {
    key: "value"
    value {
      tensor {
        dtype: DT_INT32
        tensor_shape {
        }
        int_val: 0
      }
    }
  }
}
node {
  name: "dnn/input_from_feature_columns/input_layer/Action_X_Adventure_X_Animation_X_Children_X_Comedy_X_Crime_X_Documentary_X_Drama_X_Fantasy_X_Film-Noir_X_Horror_X_IMAX_X_Musical_X_Mystery_X_Romance_X_Sci-Fi_X_Thriller_X_War_X_Western_embedding/zero_4"
  op: "Cast"
  input: "dnn/input_from_feature_columns/input_layer/Action_X_Adventure_X_Animation_X_Children_X_Comedy_X_Crime_X_Documentary_X_Drama_X_Fantasy_X_Film-Noir_X_Horror_X_IMAX_X_Musical_X_Mystery_X_Romance_X_Sci-Fi_X_Thriller_X_War_X_Western_embedding/zero_4/x"
  attr {
    key: "DstT"
    value {
      type: DT_INT64
    }
  }
  attr {
    key: "SrcT"
    value {
      type: DT_INT32
    }
  }
  attr {
    key: "_output_shapes"
    value {
      list {
        shape {
        }
      }
    }
  }
}
node {
  name: "dnn/input_from_feature_columns/input_layer/Action_X_Adventure_X_Animation_X_Children_X_Comedy_X_Crime_X_Documentary_X_Drama_X_Fantasy_X_Film-Noir_X_Horror_X_IMAX_X_Musical_X_Mystery_X_Romance_X_Sci-Fi_X_Thriller_X_War_X_Western_embedding/Less_4"
  op: "Less"
  input: "dnn/input_from_feature_columns/input_layer/Action_X_Adventure_X_Animation_X_Children_X_Comedy_X_Crime_X_Documentary_X_Drama_X_Fantasy_X_Film-Noir_X_Horror_X_IMAX_X_Musical_X_Mystery_X_Romance_X_Sci-Fi_X_Thriller_X_War_X_Western_embedding/to_sparse_input_4/values"
  input: "dnn/input_from_feature_columns/input_layer/Action_X_Adventure_X_Animation_X_Children_X_Comedy_X_Crime_X_Documentary_X_Drama_X_Fantasy_X_Film-Noir_X_Horror_X_IMAX_X_Musical_X_Mystery_X_Romance_X_Sci-Fi_X_Thriller_X_War_X_Western_embedding/zero_4"
  attr {
    key: "T"
    value {
      type: DT_INT64
    }
  }
  attr {
    key: "_output_shapes"
    value {
      list {
        shape {
          dim {
            size: -1
          }
        }
      }
    }
  }
}
node {
  name: "dnn/input_from_feature_columns/input_layer/Action_X_Adventure_X_Animation_X_Children_X_Comedy_X_Crime_X_Documentary_X_Drama_X_Fantasy_X_Film-Noir_X_Horror_X_IMAX_X_Musical_X_Mystery_X_Romance_X_Sci-Fi_X_Thriller_X_War_X_Western_embedding/GreaterEqual_4"
  op: "GreaterEqual"
  input: "dnn/input_from_feature_columns/input_layer/Action_X_Adventure_X_Animation_X_Children_X_Comedy_X_Crime_X_Documentary_X_Drama_X_Fantasy_X_Film-Noir_X_Horror_X_IMAX_X_Musical_X_Mystery_X_Romance_X_Sci-Fi_X_Thriller_X_War_X_Western_embedding/to_sparse_input_4/values"
  input: "dnn/input_from_feature_columns/input_layer/Action_X_Adventure_X_Animation_X_Children_X_Comedy_X_Crime_X_Documentary_X_Drama_X_Fantasy_X_Film-Noir_X_Horror_X_IMAX_X_Musical_X_Mystery_X_Romance_X_Sci-Fi_X_Thriller_X_War_X_Western_embedding/num_buckets_4"
  attr {
    key: "T"
    value {
      type: DT_INT64
    }
  }
  attr {
    key: "_output_shapes"
    value {
      list {
        shape {
          dim {
            size: -1
          }
        }
      }
    }
  }
}
node {
  name: "dnn/input_from_feature_columns/input_layer/Action_X_Adventure_X_Animation_X_Children_X_Comedy_X_Crime_X_Documentary_X_Drama_X_Fantasy_X_Film-Noir_X_Horror_X_IMAX_X_Musical_X_Mystery_X_Romance_X_Sci-Fi_X_Thriller_X_War_X_Western_embedding/out_of_range_4"
  op: "LogicalOr"
  input: "dnn/input_from_feature_columns/input_layer/Action_X_Adventure_X_Animation_X_Children_X_Comedy_X_Crime_X_Documentary_X_Drama_X_Fantasy_X_Film-Noir_X_Horror_X_IMAX_X_Musical_X_Mystery_X_Romance_X_Sci-Fi_X_Thriller_X_War_X_Western_embedding/Less_4"
  input: "dnn/input_from_feature_columns/input_layer/Action_X_Adventure_X_Animation_X_Children_X_Comedy_X_Crime_X_Documentary_X_Drama_X_Fantasy_X_Film-Noir_X_Horror_X_IMAX_X_Musical_X_Mystery_X_Romance_X_Sci-Fi_X_Thriller_X_War_X_Western_embedding/GreaterEqual_4"
  attr {
    key: "_output_shapes"
    value {
      list {
        shape {
          dim {
            size: -1
          }
        }
      }
    }
  }
}
node {
  name: "dnn/input_from_feature_columns/input_layer/Action_X_Adventure_X_Animation_X_Children_X_Comedy_X_Crime_X_Documentary_X_Drama_X_Fantasy_X_Film-Noir_X_Horror_X_IMAX_X_Musical_X_Mystery_X_Romance_X_Sci-Fi_X_Thriller_X_War_X_Western_embedding/Shape_4"
  op: "Shape"
  input: "dnn/input_from_feature_columns/input_layer/Action_X_Adventure_X_Animation_X_Children_X_Comedy_X_Crime_X_Documentary_X_Drama_X_Fantasy_X_Film-Noir_X_Horror_X_IMAX_X_Musical_X_Mystery_X_Romance_X_Sci-Fi_X_Thriller_X_War_X_Western_embedding/to_sparse_input_4/values"
  attr {
    key: "T"
    value {
      type: DT_INT64
    }
  }
  attr {
    key: "_output_shapes"
    value {
      list {
        shape {
          dim {
            size: 1
          }
        }
      }
    }
  }
  attr {
    key: "out_type"
    value {
      type: DT_INT32
    }
  }
}
node {
  name: "dnn/input_from_feature_columns/input_layer/Action_X_Adventure_X_Animation_X_Children_X_Comedy_X_Crime_X_Documentary_X_Drama_X_Fantasy_X_Film-Noir_X_Horror_X_IMAX_X_Musical_X_Mystery_X_Romance_X_Sci-Fi_X_Thriller_X_War_X_Western_embedding/ToInt64_4/x"
  op: "Const"
  attr {
    key: "_output_shapes"
    value {
      list {
        shape {
        }
      }
    }
  }
  attr {
    key: "dtype"
    value {
      type: DT_INT32
    }
  }
  attr {
    key: "value"
    value {
      tensor {
        dtype: DT_INT32
        tensor_shape {
        }
        int_val: 0
      }
    }
  }
}
node {
  name: "dnn/input_from_feature_columns/input_layer/Action_X_Adventure_X_Animation_X_Children_X_Comedy_X_Crime_X_Documentary_X_Drama_X_Fantasy_X_Film-Noir_X_Horror_X_IMAX_X_Musical_X_Mystery_X_Romance_X_Sci-Fi_X_Thriller_X_War_X_Western_embedding/ToInt64_4"
  op: "Cast"
  input: "dnn/input_from_feature_columns/input_layer/Action_X_Adventure_X_Animation_X_Children_X_Comedy_X_Crime_X_Documentary_X_Drama_X_Fantasy_X_Film-Noir_X_Horror_X_IMAX_X_Musical_X_Mystery_X_Romance_X_Sci-Fi_X_Thriller_X_War_X_Western_embedding/ToInt64_4/x"
  attr {
    key: "DstT"
    value {
      type: DT_INT64
    }
  }
  attr {
    key: "SrcT"
    value {
      type: DT_INT32
    }
  }
  attr {
    key: "_output_shapes"
    value {
      list {
        shape {
        }
      }
    }
  }
}
node {
  name: "dnn/input_from_feature_columns/input_layer/Action_X_Adventure_X_Animation_X_Children_X_Comedy_X_Crime_X_Documentary_X_Drama_X_Fantasy_X_Film-Noir_X_Horror_X_IMAX_X_Musical_X_Mystery_X_Romance_X_Sci-Fi_X_Thriller_X_War_X_Western_embedding/default_values_4"
  op: "Fill"
  input: "dnn/input_from_feature_columns/input_layer/Action_X_Adventure_X_Animation_X_Children_X_Comedy_X_Crime_X_Documentary_X_Drama_X_Fantasy_X_Film-Noir_X_Horror_X_IMAX_X_Musical_X_Mystery_X_Romance_X_Sci-Fi_X_Thriller_X_War_X_Western_embedding/Shape_4"
  input: "dnn/input_from_feature_columns/input_layer/Action_X_Adventure_X_Animation_X_Children_X_Comedy_X_Crime_X_Documentary_X_Drama_X_Fantasy_X_Film-Noir_X_Horror_X_IMAX_X_Musical_X_Mystery_X_Romance_X_Sci-Fi_X_Thriller_X_War_X_Western_embedding/ToInt64_4"
  attr {
    key: "T"
    value {
      type: DT_INT64
    }
  }
  attr {
    key: "_output_shapes"
    value {
      list {
        shape {
          dim {
            size: -1
          }
        }
      }
    }
  }
  attr {
    key: "index_type"
    value {
      type: DT_INT32
    }
  }
}
node {
  name: "dnn/input_from_feature_columns/input_layer/Action_X_Adventure_X_Animation_X_Children_X_Comedy_X_Crime_X_Documentary_X_Drama_X_Fantasy_X_Film-Noir_X_Horror_X_IMAX_X_Musical_X_Mystery_X_Romance_X_Sci-Fi_X_Thriller_X_War_X_Western_embedding/Select_4"
  op: "Select"
  input: "dnn/input_from_feature_columns/input_layer/Action_X_Adventure_X_Animation_X_Children_X_Comedy_X_Crime_X_Documentary_X_Drama_X_Fantasy_X_Film-Noir_X_Horror_X_IMAX_X_Musical_X_Mystery_X_Romance_X_Sci-Fi_X_Thriller_X_War_X_Western_embedding/out_of_range_4"
  input: "dnn/input_from_feature_columns/input_layer/Action_X_Adventure_X_Animation_X_Children_X_Comedy_X_Crime_X_Documentary_X_Drama_X_Fantasy_X_Film-Noir_X_Horror_X_IMAX_X_Musical_X_Mystery_X_Romance_X_Sci-Fi_X_Thriller_X_War_X_Western_embedding/default_values_4"
  input: "dnn/input_from_feature_columns/input_layer/Action_X_Adventure_X_Animation_X_Children_X_Comedy_X_Crime_X_Documentary_X_Drama_X_Fantasy_X_Film-Noir_X_Horror_X_IMAX_X_Musical_X_Mystery_X_Romance_X_Sci-Fi_X_Thriller_X_War_X_Western_embedding/to_sparse_input_4/values"
  attr {
    key: "T"
    value {
      type: DT_INT64
    }
  }
  attr {
    key: "_output_shapes"
    value {
      list {
        shape {
          dim {
            size: -1
          }
        }
      }
    }
  }
}
node {
  name: "dnn/input_from_feature_columns/input_layer/Action_X_Adventure_X_Animation_X_Children_X_Comedy_X_Crime_X_Documentary_X_Drama_X_Fantasy_X_Film-Noir_X_Horror_X_IMAX_X_Musical_X_Mystery_X_Romance_X_Sci-Fi_X_Thriller_X_War_X_Western_embedding/ExpandDims_5/dim"
  op: "Const"
  attr {
    key: "_output_shapes"
    value {
      list {
        shape {
        }
      }
    }
  }
  attr {
    key: "dtype"
    value {
      type: DT_INT32
    }
  }
  attr {
    key: "value"
    value {
      tensor {
        dtype: DT_INT32
        tensor_shape {
        }
        int_val: -1
      }
    }
  }
}
node {
  name: "dnn/input_from_feature_columns/input_layer/Action_X_Adventure_X_Animation_X_Children_X_Comedy_X_Crime_X_Documentary_X_Drama_X_Fantasy_X_Film-Noir_X_Horror_X_IMAX_X_Musical_X_Mystery_X_Romance_X_Sci-Fi_X_Thriller_X_War_X_Western_embedding/ExpandDims_5"
  op: "ExpandDims"
  input: "random_shuffle_queue_DequeueUpTo:9"
  input: "dnn/input_from_feature_columns/input_layer/Action_X_Adventure_X_Animation_X_Children_X_Comedy_X_Crime_X_Documentary_X_Drama_X_Fantasy_X_Film-Noir_X_Horror_X_IMAX_X_Musical_X_Mystery_X_Romance_X_Sci-Fi_X_Thriller_X_War_X_Western_embedding/ExpandDims_5/dim"
  attr {
    key: "T"
    value {
      type: DT_INT64
    }
  }
  attr {
    key: "Tdim"
    value {
      type: DT_INT32
    }
  }
  attr {
    key: "_output_shapes"
    value {
      list {
        shape {
          dim {
            size: -1
          }
          dim {
            size: 1
          }
        }
      }
    }
  }
}
node {
  name: "dnn/input_from_feature_columns/input_layer/Action_X_Adventure_X_Animation_X_Children_X_Comedy_X_Crime_X_Documentary_X_Drama_X_Fantasy_X_Film-Noir_X_Horror_X_IMAX_X_Musical_X_Mystery_X_Romance_X_Sci-Fi_X_Thriller_X_War_X_Western_embedding/to_sparse_input_5/ignore_value/x"
  op: "Const"
  attr {
    key: "_output_shapes"
    value {
      list {
        shape {
        }
      }
    }
  }
  attr {
    key: "dtype"
    value {
      type: DT_INT32
    }
  }
  attr {
    key: "value"
    value {
      tensor {
        dtype: DT_INT32
        tensor_shape {
        }
        int_val: -1
      }
    }
  }
}
node {
  name: "dnn/input_from_feature_columns/input_layer/Action_X_Adventure_X_Animation_X_Children_X_Comedy_X_Crime_X_Documentary_X_Drama_X_Fantasy_X_Film-Noir_X_Horror_X_IMAX_X_Musical_X_Mystery_X_Romance_X_Sci-Fi_X_Thriller_X_War_X_Western_embedding/to_sparse_input_5/ignore_value"
  op: "Cast"
  input: "dnn/input_from_feature_columns/input_layer/Action_X_Adventure_X_Animation_X_Children_X_Comedy_X_Crime_X_Documentary_X_Drama_X_Fantasy_X_Film-Noir_X_Horror_X_IMAX_X_Musical_X_Mystery_X_Romance_X_Sci-Fi_X_Thriller_X_War_X_Western_embedding/to_sparse_input_5/ignore_value/x"
  attr {
    key: "DstT"
    value {
      type: DT_INT64
    }
  }
  attr {
    key: "SrcT"
    value {
      type: DT_INT32
    }
  }
  attr {
    key: "_output_shapes"
    value {
      list {
        shape {
        }
      }
    }
  }
}
node {
  name: "dnn/input_from_feature_columns/input_layer/Action_X_Adventure_X_Animation_X_Children_X_Comedy_X_Crime_X_Documentary_X_Drama_X_Fantasy_X_Film-Noir_X_Horror_X_IMAX_X_Musical_X_Mystery_X_Romance_X_Sci-Fi_X_Thriller_X_War_X_Western_embedding/to_sparse_input_5/NotEqual"
  op: "NotEqual"
  input: "dnn/input_from_feature_columns/input_layer/Action_X_Adventure_X_Animation_X_Children_X_Comedy_X_Crime_X_Documentary_X_Drama_X_Fantasy_X_Film-Noir_X_Horror_X_IMAX_X_Musical_X_Mystery_X_Romance_X_Sci-Fi_X_Thriller_X_War_X_Western_embedding/ExpandDims_5"
  input: "dnn/input_from_feature_columns/input_layer/Action_X_Adventure_X_Animation_X_Children_X_Comedy_X_Crime_X_Documentary_X_Drama_X_Fantasy_X_Film-Noir_X_Horror_X_IMAX_X_Musical_X_Mystery_X_Romance_X_Sci-Fi_X_Thriller_X_War_X_Western_embedding/to_sparse_input_5/ignore_value"
  attr {
    key: "T"
    value {
      type: DT_INT64
    }
  }
  attr {
    key: "_output_shapes"
    value {
      list {
        shape {
          dim {
            size: -1
          }
          dim {
            size: 1
          }
        }
      }
    }
  }
}
node {
  name: "dnn/input_from_feature_columns/input_layer/Action_X_Adventure_X_Animation_X_Children_X_Comedy_X_Crime_X_Documentary_X_Drama_X_Fantasy_X_Film-Noir_X_Horror_X_IMAX_X_Musical_X_Mystery_X_Romance_X_Sci-Fi_X_Thriller_X_War_X_Western_embedding/to_sparse_input_5/indices"
  op: "Where"
  input: "dnn/input_from_feature_columns/input_layer/Action_X_Adventure_X_Animation_X_Children_X_Comedy_X_Crime_X_Documentary_X_Drama_X_Fantasy_X_Film-Noir_X_Horror_X_IMAX_X_Musical_X_Mystery_X_Romance_X_Sci-Fi_X_Thriller_X_War_X_Western_embedding/to_sparse_input_5/NotEqual"
  attr {
    key: "T"
    value {
      type: DT_BOOL
    }
  }
  attr {
    key: "_output_shapes"
    value {
      list {
        shape {
          dim {
            size: -1
          }
          dim {
            size: 2
          }
        }
      }
    }
  }
}
node {
  name: "dnn/input_from_feature_columns/input_layer/Action_X_Adventure_X_Animation_X_Children_X_Comedy_X_Crime_X_Documentary_X_Drama_X_Fantasy_X_Film-Noir_X_Horror_X_IMAX_X_Musical_X_Mystery_X_Romance_X_Sci-Fi_X_Thriller_X_War_X_Western_embedding/to_sparse_input_5/values"
  op: "GatherNd"
  input: "dnn/input_from_feature_columns/input_layer/Action_X_Adventure_X_Animation_X_Children_X_Comedy_X_Crime_X_Documentary_X_Drama_X_Fantasy_X_Film-Noir_X_Horror_X_IMAX_X_Musical_X_Mystery_X_Romance_X_Sci-Fi_X_Thriller_X_War_X_Western_embedding/ExpandDims_5"
  input: "dnn/input_from_feature_columns/input_layer/Action_X_Adventure_X_Animation_X_Children_X_Comedy_X_Crime_X_Documentary_X_Drama_X_Fantasy_X_Film-Noir_X_Horror_X_IMAX_X_Musical_X_Mystery_X_Romance_X_Sci-Fi_X_Thriller_X_War_X_Western_embedding/to_sparse_input_5/indices"
  attr {
    key: "Tindices"
    value {
      type: DT_INT64
    }
  }
  attr {
    key: "Tparams"
    value {
      type: DT_INT64
    }
  }
  attr {
    key: "_output_shapes"
    value {
      list {
        shape {
          dim {
            size: -1
          }
        }
      }
    }
  }
}
node {
  name: "dnn/input_from_feature_columns/input_layer/Action_X_Adventure_X_Animation_X_Children_X_Comedy_X_Crime_X_Documentary_X_Drama_X_Fantasy_X_Film-Noir_X_Horror_X_IMAX_X_Musical_X_Mystery_X_Romance_X_Sci-Fi_X_Thriller_X_War_X_Western_embedding/to_sparse_input_5/dense_shape"
  op: "Shape"
  input: "dnn/input_from_feature_columns/input_layer/Action_X_Adventure_X_Animation_X_Children_X_Comedy_X_Crime_X_Documentary_X_Drama_X_Fantasy_X_Film-Noir_X_Horror_X_IMAX_X_Musical_X_Mystery_X_Romance_X_Sci-Fi_X_Thriller_X_War_X_Western_embedding/ExpandDims_5"
  attr {
    key: "T"
    value {
      type: DT_INT64
    }
  }
  attr {
    key: "_output_shapes"
    value {
      list {
        shape {
          dim {
            size: 2
          }
        }
      }
    }
  }
  attr {
    key: "out_type"
    value {
      type: DT_INT64
    }
  }
}
node {
  name: "dnn/input_from_feature_columns/input_layer/Action_X_Adventure_X_Animation_X_Children_X_Comedy_X_Crime_X_Documentary_X_Drama_X_Fantasy_X_Film-Noir_X_Horror_X_IMAX_X_Musical_X_Mystery_X_Romance_X_Sci-Fi_X_Thriller_X_War_X_Western_embedding/num_buckets_5/x"
  op: "Const"
  attr {
    key: "_output_shapes"
    value {
      list {
        shape {
        }
      }
    }
  }
  attr {
    key: "dtype"
    value {
      type: DT_INT32
    }
  }
  attr {
    key: "value"
    value {
      tensor {
        dtype: DT_INT32
        tensor_shape {
        }
        int_val: 2
      }
    }
  }
}
node {
  name: "dnn/input_from_feature_columns/input_layer/Action_X_Adventure_X_Animation_X_Children_X_Comedy_X_Crime_X_Documentary_X_Drama_X_Fantasy_X_Film-Noir_X_Horror_X_IMAX_X_Musical_X_Mystery_X_Romance_X_Sci-Fi_X_Thriller_X_War_X_Western_embedding/num_buckets_5"
  op: "Cast"
  input: "dnn/input_from_feature_columns/input_layer/Action_X_Adventure_X_Animation_X_Children_X_Comedy_X_Crime_X_Documentary_X_Drama_X_Fantasy_X_Film-Noir_X_Horror_X_IMAX_X_Musical_X_Mystery_X_Romance_X_Sci-Fi_X_Thriller_X_War_X_Western_embedding/num_buckets_5/x"
  attr {
    key: "DstT"
    value {
      type: DT_INT64
    }
  }
  attr {
    key: "SrcT"
    value {
      type: DT_INT32
    }
  }
  attr {
    key: "_output_shapes"
    value {
      list {
        shape {
        }
      }
    }
  }
}
node {
  name: "dnn/input_from_feature_columns/input_layer/Action_X_Adventure_X_Animation_X_Children_X_Comedy_X_Crime_X_Documentary_X_Drama_X_Fantasy_X_Film-Noir_X_Horror_X_IMAX_X_Musical_X_Mystery_X_Romance_X_Sci-Fi_X_Thriller_X_War_X_Western_embedding/zero_5/x"
  op: "Const"
  attr {
    key: "_output_shapes"
    value {
      list {
        shape {
        }
      }
    }
  }
  attr {
    key: "dtype"
    value {
      type: DT_INT32
    }
  }
  attr {
    key: "value"
    value {
      tensor {
        dtype: DT_INT32
        tensor_shape {
        }
        int_val: 0
      }
    }
  }
}
node {
  name: "dnn/input_from_feature_columns/input_layer/Action_X_Adventure_X_Animation_X_Children_X_Comedy_X_Crime_X_Documentary_X_Drama_X_Fantasy_X_Film-Noir_X_Horror_X_IMAX_X_Musical_X_Mystery_X_Romance_X_Sci-Fi_X_Thriller_X_War_X_Western_embedding/zero_5"
  op: "Cast"
  input: "dnn/input_from_feature_columns/input_layer/Action_X_Adventure_X_Animation_X_Children_X_Comedy_X_Crime_X_Documentary_X_Drama_X_Fantasy_X_Film-Noir_X_Horror_X_IMAX_X_Musical_X_Mystery_X_Romance_X_Sci-Fi_X_Thriller_X_War_X_Western_embedding/zero_5/x"
  attr {
    key: "DstT"
    value {
      type: DT_INT64
    }
  }
  attr {
    key: "SrcT"
    value {
      type: DT_INT32
    }
  }
  attr {
    key: "_output_shapes"
    value {
      list {
        shape {
        }
      }
    }
  }
}
node {
  name: "dnn/input_from_feature_columns/input_layer/Action_X_Adventure_X_Animation_X_Children_X_Comedy_X_Crime_X_Documentary_X_Drama_X_Fantasy_X_Film-Noir_X_Horror_X_IMAX_X_Musical_X_Mystery_X_Romance_X_Sci-Fi_X_Thriller_X_War_X_Western_embedding/Less_5"
  op: "Less"
  input: "dnn/input_from_feature_columns/input_layer/Action_X_Adventure_X_Animation_X_Children_X_Comedy_X_Crime_X_Documentary_X_Drama_X_Fantasy_X_Film-Noir_X_Horror_X_IMAX_X_Musical_X_Mystery_X_Romance_X_Sci-Fi_X_Thriller_X_War_X_Western_embedding/to_sparse_input_5/values"
  input: "dnn/input_from_feature_columns/input_layer/Action_X_Adventure_X_Animation_X_Children_X_Comedy_X_Crime_X_Documentary_X_Drama_X_Fantasy_X_Film-Noir_X_Horror_X_IMAX_X_Musical_X_Mystery_X_Romance_X_Sci-Fi_X_Thriller_X_War_X_Western_embedding/zero_5"
  attr {
    key: "T"
    value {
      type: DT_INT64
    }
  }
  attr {
    key: "_output_shapes"
    value {
      list {
        shape {
          dim {
            size: -1
          }
        }
      }
    }
  }
}
node {
  name: "dnn/input_from_feature_columns/input_layer/Action_X_Adventure_X_Animation_X_Children_X_Comedy_X_Crime_X_Documentary_X_Drama_X_Fantasy_X_Film-Noir_X_Horror_X_IMAX_X_Musical_X_Mystery_X_Romance_X_Sci-Fi_X_Thriller_X_War_X_Western_embedding/GreaterEqual_5"
  op: "GreaterEqual"
  input: "dnn/input_from_feature_columns/input_layer/Action_X_Adventure_X_Animation_X_Children_X_Comedy_X_Crime_X_Documentary_X_Drama_X_Fantasy_X_Film-Noir_X_Horror_X_IMAX_X_Musical_X_Mystery_X_Romance_X_Sci-Fi_X_Thriller_X_War_X_Western_embedding/to_sparse_input_5/values"
  input: "dnn/input_from_feature_columns/input_layer/Action_X_Adventure_X_Animation_X_Children_X_Comedy_X_Crime_X_Documentary_X_Drama_X_Fantasy_X_Film-Noir_X_Horror_X_IMAX_X_Musical_X_Mystery_X_Romance_X_Sci-Fi_X_Thriller_X_War_X_Western_embedding/num_buckets_5"
  attr {
    key: "T"
    value {
      type: DT_INT64
    }
  }
  attr {
    key: "_output_shapes"
    value {
      list {
        shape {
          dim {
            size: -1
          }
        }
      }
    }
  }
}
node {
  name: "dnn/input_from_feature_columns/input_layer/Action_X_Adventure_X_Animation_X_Children_X_Comedy_X_Crime_X_Documentary_X_Drama_X_Fantasy_X_Film-Noir_X_Horror_X_IMAX_X_Musical_X_Mystery_X_Romance_X_Sci-Fi_X_Thriller_X_War_X_Western_embedding/out_of_range_5"
  op: "LogicalOr"
  input: "dnn/input_from_feature_columns/input_layer/Action_X_Adventure_X_Animation_X_Children_X_Comedy_X_Crime_X_Documentary_X_Drama_X_Fantasy_X_Film-Noir_X_Horror_X_IMAX_X_Musical_X_Mystery_X_Romance_X_Sci-Fi_X_Thriller_X_War_X_Western_embedding/Less_5"
  input: "dnn/input_from_feature_columns/input_layer/Action_X_Adventure_X_Animation_X_Children_X_Comedy_X_Crime_X_Documentary_X_Drama_X_Fantasy_X_Film-Noir_X_Horror_X_IMAX_X_Musical_X_Mystery_X_Romance_X_Sci-Fi_X_Thriller_X_War_X_Western_embedding/GreaterEqual_5"
  attr {
    key: "_output_shapes"
    value {
      list {
        shape {
          dim {
            size: -1
          }
        }
      }
    }
  }
}
node {
  name: "dnn/input_from_feature_columns/input_layer/Action_X_Adventure_X_Animation_X_Children_X_Comedy_X_Crime_X_Documentary_X_Drama_X_Fantasy_X_Film-Noir_X_Horror_X_IMAX_X_Musical_X_Mystery_X_Romance_X_Sci-Fi_X_Thriller_X_War_X_Western_embedding/Shape_5"
  op: "Shape"
  input: "dnn/input_from_feature_columns/input_layer/Action_X_Adventure_X_Animation_X_Children_X_Comedy_X_Crime_X_Documentary_X_Drama_X_Fantasy_X_Film-Noir_X_Horror_X_IMAX_X_Musical_X_Mystery_X_Romance_X_Sci-Fi_X_Thriller_X_War_X_Western_embedding/to_sparse_input_5/values"
  attr {
    key: "T"
    value {
      type: DT_INT64
    }
  }
  attr {
    key: "_output_shapes"
    value {
      list {
        shape {
          dim {
            size: 1
          }
        }
      }
    }
  }
  attr {
    key: "out_type"
    value {
      type: DT_INT32
    }
  }
}
node {
  name: "dnn/input_from_feature_columns/input_layer/Action_X_Adventure_X_Animation_X_Children_X_Comedy_X_Crime_X_Documentary_X_Drama_X_Fantasy_X_Film-Noir_X_Horror_X_IMAX_X_Musical_X_Mystery_X_Romance_X_Sci-Fi_X_Thriller_X_War_X_Western_embedding/ToInt64_5/x"
  op: "Const"
  attr {
    key: "_output_shapes"
    value {
      list {
        shape {
        }
      }
    }
  }
  attr {
    key: "dtype"
    value {
      type: DT_INT32
    }
  }
  attr {
    key: "value"
    value {
      tensor {
        dtype: DT_INT32
        tensor_shape {
        }
        int_val: 0
      }
    }
  }
}
node {
  name: "dnn/input_from_feature_columns/input_layer/Action_X_Adventure_X_Animation_X_Children_X_Comedy_X_Crime_X_Documentary_X_Drama_X_Fantasy_X_Film-Noir_X_Horror_X_IMAX_X_Musical_X_Mystery_X_Romance_X_Sci-Fi_X_Thriller_X_War_X_Western_embedding/ToInt64_5"
  op: "Cast"
  input: "dnn/input_from_feature_columns/input_layer/Action_X_Adventure_X_Animation_X_Children_X_Comedy_X_Crime_X_Documentary_X_Drama_X_Fantasy_X_Film-Noir_X_Horror_X_IMAX_X_Musical_X_Mystery_X_Romance_X_Sci-Fi_X_Thriller_X_War_X_Western_embedding/ToInt64_5/x"
  attr {
    key: "DstT"
    value {
      type: DT_INT64
    }
  }
  attr {
    key: "SrcT"
    value {
      type: DT_INT32
    }
  }
  attr {
    key: "_output_shapes"
    value {
      list {
        shape {
        }
      }
    }
  }
}
node {
  name: "dnn/input_from_feature_columns/input_layer/Action_X_Adventure_X_Animation_X_Children_X_Comedy_X_Crime_X_Documentary_X_Drama_X_Fantasy_X_Film-Noir_X_Horror_X_IMAX_X_Musical_X_Mystery_X_Romance_X_Sci-Fi_X_Thriller_X_War_X_Western_embedding/default_values_5"
  op: "Fill"
  input: "dnn/input_from_feature_columns/input_layer/Action_X_Adventure_X_Animation_X_Children_X_Comedy_X_Crime_X_Documentary_X_Drama_X_Fantasy_X_Film-Noir_X_Horror_X_IMAX_X_Musical_X_Mystery_X_Romance_X_Sci-Fi_X_Thriller_X_War_X_Western_embedding/Shape_5"
  input: "dnn/input_from_feature_columns/input_layer/Action_X_Adventure_X_Animation_X_Children_X_Comedy_X_Crime_X_Documentary_X_Drama_X_Fantasy_X_Film-Noir_X_Horror_X_IMAX_X_Musical_X_Mystery_X_Romance_X_Sci-Fi_X_Thriller_X_War_X_Western_embedding/ToInt64_5"
  attr {
    key: "T"
    value {
      type: DT_INT64
    }
  }
  attr {
    key: "_output_shapes"
    value {
      list {
        shape {
          dim {
            size: -1
          }
        }
      }
    }
  }
  attr {
    key: "index_type"
    value {
      type: DT_INT32
    }
  }
}
node {
  name: "dnn/input_from_feature_columns/input_layer/Action_X_Adventure_X_Animation_X_Children_X_Comedy_X_Crime_X_Documentary_X_Drama_X_Fantasy_X_Film-Noir_X_Horror_X_IMAX_X_Musical_X_Mystery_X_Romance_X_Sci-Fi_X_Thriller_X_War_X_Western_embedding/Select_5"
  op: "Select"
  input: "dnn/input_from_feature_columns/input_layer/Action_X_Adventure_X_Animation_X_Children_X_Comedy_X_Crime_X_Documentary_X_Drama_X_Fantasy_X_Film-Noir_X_Horror_X_IMAX_X_Musical_X_Mystery_X_Romance_X_Sci-Fi_X_Thriller_X_War_X_Western_embedding/out_of_range_5"
  input: "dnn/input_from_feature_columns/input_layer/Action_X_Adventure_X_Animation_X_Children_X_Comedy_X_Crime_X_Documentary_X_Drama_X_Fantasy_X_Film-Noir_X_Horror_X_IMAX_X_Musical_X_Mystery_X_Romance_X_Sci-Fi_X_Thriller_X_War_X_Western_embedding/default_values_5"
  input: "dnn/input_from_feature_columns/input_layer/Action_X_Adventure_X_Animation_X_Children_X_Comedy_X_Crime_X_Documentary_X_Drama_X_Fantasy_X_Film-Noir_X_Horror_X_IMAX_X_Musical_X_Mystery_X_Romance_X_Sci-Fi_X_Thriller_X_War_X_Western_embedding/to_sparse_input_5/values"
  attr {
    key: "T"
    value {
      type: DT_INT64
    }
  }
  attr {
    key: "_output_shapes"
    value {
      list {
        shape {
          dim {
            size: -1
          }
        }
      }
    }
  }
}
node {
  name: "dnn/input_from_feature_columns/input_layer/Action_X_Adventure_X_Animation_X_Children_X_Comedy_X_Crime_X_Documentary_X_Drama_X_Fantasy_X_Film-Noir_X_Horror_X_IMAX_X_Musical_X_Mystery_X_Romance_X_Sci-Fi_X_Thriller_X_War_X_Western_embedding/ExpandDims_6/dim"
  op: "Const"
  attr {
    key: "_output_shapes"
    value {
      list {
        shape {
        }
      }
    }
  }
  attr {
    key: "dtype"
    value {
      type: DT_INT32
    }
  }
  attr {
    key: "value"
    value {
      tensor {
        dtype: DT_INT32
        tensor_shape {
        }
        int_val: -1
      }
    }
  }
}
node {
  name: "dnn/input_from_feature_columns/input_layer/Action_X_Adventure_X_Animation_X_Children_X_Comedy_X_Crime_X_Documentary_X_Drama_X_Fantasy_X_Film-Noir_X_Horror_X_IMAX_X_Musical_X_Mystery_X_Romance_X_Sci-Fi_X_Thriller_X_War_X_Western_embedding/ExpandDims_6"
  op: "ExpandDims"
  input: "random_shuffle_queue_DequeueUpTo:10"
  input: "dnn/input_from_feature_columns/input_layer/Action_X_Adventure_X_Animation_X_Children_X_Comedy_X_Crime_X_Documentary_X_Drama_X_Fantasy_X_Film-Noir_X_Horror_X_IMAX_X_Musical_X_Mystery_X_Romance_X_Sci-Fi_X_Thriller_X_War_X_Western_embedding/ExpandDims_6/dim"
  attr {
    key: "T"
    value {
      type: DT_INT64
    }
  }
  attr {
    key: "Tdim"
    value {
      type: DT_INT32
    }
  }
  attr {
    key: "_output_shapes"
    value {
      list {
        shape {
          dim {
            size: -1
          }
          dim {
            size: 1
          }
        }
      }
    }
  }
}
node {
  name: "dnn/input_from_feature_columns/input_layer/Action_X_Adventure_X_Animation_X_Children_X_Comedy_X_Crime_X_Documentary_X_Drama_X_Fantasy_X_Film-Noir_X_Horror_X_IMAX_X_Musical_X_Mystery_X_Romance_X_Sci-Fi_X_Thriller_X_War_X_Western_embedding/to_sparse_input_6/ignore_value/x"
  op: "Const"
  attr {
    key: "_output_shapes"
    value {
      list {
        shape {
        }
      }
    }
  }
  attr {
    key: "dtype"
    value {
      type: DT_INT32
    }
  }
  attr {
    key: "value"
    value {
      tensor {
        dtype: DT_INT32
        tensor_shape {
        }
        int_val: -1
      }
    }
  }
}
node {
  name: "dnn/input_from_feature_columns/input_layer/Action_X_Adventure_X_Animation_X_Children_X_Comedy_X_Crime_X_Documentary_X_Drama_X_Fantasy_X_Film-Noir_X_Horror_X_IMAX_X_Musical_X_Mystery_X_Romance_X_Sci-Fi_X_Thriller_X_War_X_Western_embedding/to_sparse_input_6/ignore_value"
  op: "Cast"
  input: "dnn/input_from_feature_columns/input_layer/Action_X_Adventure_X_Animation_X_Children_X_Comedy_X_Crime_X_Documentary_X_Drama_X_Fantasy_X_Film-Noir_X_Horror_X_IMAX_X_Musical_X_Mystery_X_Romance_X_Sci-Fi_X_Thriller_X_War_X_Western_embedding/to_sparse_input_6/ignore_value/x"
  attr {
    key: "DstT"
    value {
      type: DT_INT64
    }
  }
  attr {
    key: "SrcT"
    value {
      type: DT_INT32
    }
  }
  attr {
    key: "_output_shapes"
    value {
      list {
        shape {
        }
      }
    }
  }
}
node {
  name: "dnn/input_from_feature_columns/input_layer/Action_X_Adventure_X_Animation_X_Children_X_Comedy_X_Crime_X_Documentary_X_Drama_X_Fantasy_X_Film-Noir_X_Horror_X_IMAX_X_Musical_X_Mystery_X_Romance_X_Sci-Fi_X_Thriller_X_War_X_Western_embedding/to_sparse_input_6/NotEqual"
  op: "NotEqual"
  input: "dnn/input_from_feature_columns/input_layer/Action_X_Adventure_X_Animation_X_Children_X_Comedy_X_Crime_X_Documentary_X_Drama_X_Fantasy_X_Film-Noir_X_Horror_X_IMAX_X_Musical_X_Mystery_X_Romance_X_Sci-Fi_X_Thriller_X_War_X_Western_embedding/ExpandDims_6"
  input: "dnn/input_from_feature_columns/input_layer/Action_X_Adventure_X_Animation_X_Children_X_Comedy_X_Crime_X_Documentary_X_Drama_X_Fantasy_X_Film-Noir_X_Horror_X_IMAX_X_Musical_X_Mystery_X_Romance_X_Sci-Fi_X_Thriller_X_War_X_Western_embedding/to_sparse_input_6/ignore_value"
  attr {
    key: "T"
    value {
      type: DT_INT64
    }
  }
  attr {
    key: "_output_shapes"
    value {
      list {
        shape {
          dim {
            size: -1
          }
          dim {
            size: 1
          }
        }
      }
    }
  }
}
node {
  name: "dnn/input_from_feature_columns/input_layer/Action_X_Adventure_X_Animation_X_Children_X_Comedy_X_Crime_X_Documentary_X_Drama_X_Fantasy_X_Film-Noir_X_Horror_X_IMAX_X_Musical_X_Mystery_X_Romance_X_Sci-Fi_X_Thriller_X_War_X_Western_embedding/to_sparse_input_6/indices"
  op: "Where"
  input: "dnn/input_from_feature_columns/input_layer/Action_X_Adventure_X_Animation_X_Children_X_Comedy_X_Crime_X_Documentary_X_Drama_X_Fantasy_X_Film-Noir_X_Horror_X_IMAX_X_Musical_X_Mystery_X_Romance_X_Sci-Fi_X_Thriller_X_War_X_Western_embedding/to_sparse_input_6/NotEqual"
  attr {
    key: "T"
    value {
      type: DT_BOOL
    }
  }
  attr {
    key: "_output_shapes"
    value {
      list {
        shape {
          dim {
            size: -1
          }
          dim {
            size: 2
          }
        }
      }
    }
  }
}
node {
  name: "dnn/input_from_feature_columns/input_layer/Action_X_Adventure_X_Animation_X_Children_X_Comedy_X_Crime_X_Documentary_X_Drama_X_Fantasy_X_Film-Noir_X_Horror_X_IMAX_X_Musical_X_Mystery_X_Romance_X_Sci-Fi_X_Thriller_X_War_X_Western_embedding/to_sparse_input_6/values"
  op: "GatherNd"
  input: "dnn/input_from_feature_columns/input_layer/Action_X_Adventure_X_Animation_X_Children_X_Comedy_X_Crime_X_Documentary_X_Drama_X_Fantasy_X_Film-Noir_X_Horror_X_IMAX_X_Musical_X_Mystery_X_Romance_X_Sci-Fi_X_Thriller_X_War_X_Western_embedding/ExpandDims_6"
  input: "dnn/input_from_feature_columns/input_layer/Action_X_Adventure_X_Animation_X_Children_X_Comedy_X_Crime_X_Documentary_X_Drama_X_Fantasy_X_Film-Noir_X_Horror_X_IMAX_X_Musical_X_Mystery_X_Romance_X_Sci-Fi_X_Thriller_X_War_X_Western_embedding/to_sparse_input_6/indices"
  attr {
    key: "Tindices"
    value {
      type: DT_INT64
    }
  }
  attr {
    key: "Tparams"
    value {
      type: DT_INT64
    }
  }
  attr {
    key: "_output_shapes"
    value {
      list {
        shape {
          dim {
            size: -1
          }
        }
      }
    }
  }
}
node {
  name: "dnn/input_from_feature_columns/input_layer/Action_X_Adventure_X_Animation_X_Children_X_Comedy_X_Crime_X_Documentary_X_Drama_X_Fantasy_X_Film-Noir_X_Horror_X_IMAX_X_Musical_X_Mystery_X_Romance_X_Sci-Fi_X_Thriller_X_War_X_Western_embedding/to_sparse_input_6/dense_shape"
  op: "Shape"
  input: "dnn/input_from_feature_columns/input_layer/Action_X_Adventure_X_Animation_X_Children_X_Comedy_X_Crime_X_Documentary_X_Drama_X_Fantasy_X_Film-Noir_X_Horror_X_IMAX_X_Musical_X_Mystery_X_Romance_X_Sci-Fi_X_Thriller_X_War_X_Western_embedding/ExpandDims_6"
  attr {
    key: "T"
    value {
      type: DT_INT64
    }
  }
  attr {
    key: "_output_shapes"
    value {
      list {
        shape {
          dim {
            size: 2
          }
        }
      }
    }
  }
  attr {
    key: "out_type"
    value {
      type: DT_INT64
    }
  }
}
node {
  name: "dnn/input_from_feature_columns/input_layer/Action_X_Adventure_X_Animation_X_Children_X_Comedy_X_Crime_X_Documentary_X_Drama_X_Fantasy_X_Film-Noir_X_Horror_X_IMAX_X_Musical_X_Mystery_X_Romance_X_Sci-Fi_X_Thriller_X_War_X_Western_embedding/num_buckets_6/x"
  op: "Const"
  attr {
    key: "_output_shapes"
    value {
      list {
        shape {
        }
      }
    }
  }
  attr {
    key: "dtype"
    value {
      type: DT_INT32
    }
  }
  attr {
    key: "value"
    value {
      tensor {
        dtype: DT_INT32
        tensor_shape {
        }
        int_val: 2
      }
    }
  }
}
node {
  name: "dnn/input_from_feature_columns/input_layer/Action_X_Adventure_X_Animation_X_Children_X_Comedy_X_Crime_X_Documentary_X_Drama_X_Fantasy_X_Film-Noir_X_Horror_X_IMAX_X_Musical_X_Mystery_X_Romance_X_Sci-Fi_X_Thriller_X_War_X_Western_embedding/num_buckets_6"
  op: "Cast"
  input: "dnn/input_from_feature_columns/input_layer/Action_X_Adventure_X_Animation_X_Children_X_Comedy_X_Crime_X_Documentary_X_Drama_X_Fantasy_X_Film-Noir_X_Horror_X_IMAX_X_Musical_X_Mystery_X_Romance_X_Sci-Fi_X_Thriller_X_War_X_Western_embedding/num_buckets_6/x"
  attr {
    key: "DstT"
    value {
      type: DT_INT64
    }
  }
  attr {
    key: "SrcT"
    value {
      type: DT_INT32
    }
  }
  attr {
    key: "_output_shapes"
    value {
      list {
        shape {
        }
      }
    }
  }
}
node {
  name: "dnn/input_from_feature_columns/input_layer/Action_X_Adventure_X_Animation_X_Children_X_Comedy_X_Crime_X_Documentary_X_Drama_X_Fantasy_X_Film-Noir_X_Horror_X_IMAX_X_Musical_X_Mystery_X_Romance_X_Sci-Fi_X_Thriller_X_War_X_Western_embedding/zero_6/x"
  op: "Const"
  attr {
    key: "_output_shapes"
    value {
      list {
        shape {
        }
      }
    }
  }
  attr {
    key: "dtype"
    value {
      type: DT_INT32
    }
  }
  attr {
    key: "value"
    value {
      tensor {
        dtype: DT_INT32
        tensor_shape {
        }
        int_val: 0
      }
    }
  }
}
node {
  name: "dnn/input_from_feature_columns/input_layer/Action_X_Adventure_X_Animation_X_Children_X_Comedy_X_Crime_X_Documentary_X_Drama_X_Fantasy_X_Film-Noir_X_Horror_X_IMAX_X_Musical_X_Mystery_X_Romance_X_Sci-Fi_X_Thriller_X_War_X_Western_embedding/zero_6"
  op: "Cast"
  input: "dnn/input_from_feature_columns/input_layer/Action_X_Adventure_X_Animation_X_Children_X_Comedy_X_Crime_X_Documentary_X_Drama_X_Fantasy_X_Film-Noir_X_Horror_X_IMAX_X_Musical_X_Mystery_X_Romance_X_Sci-Fi_X_Thriller_X_War_X_Western_embedding/zero_6/x"
  attr {
    key: "DstT"
    value {
      type: DT_INT64
    }
  }
  attr {
    key: "SrcT"
    value {
      type: DT_INT32
    }
  }
  attr {
    key: "_output_shapes"
    value {
      list {
        shape {
        }
      }
    }
  }
}
node {
  name: "dnn/input_from_feature_columns/input_layer/Action_X_Adventure_X_Animation_X_Children_X_Comedy_X_Crime_X_Documentary_X_Drama_X_Fantasy_X_Film-Noir_X_Horror_X_IMAX_X_Musical_X_Mystery_X_Romance_X_Sci-Fi_X_Thriller_X_War_X_Western_embedding/Less_6"
  op: "Less"
  input: "dnn/input_from_feature_columns/input_layer/Action_X_Adventure_X_Animation_X_Children_X_Comedy_X_Crime_X_Documentary_X_Drama_X_Fantasy_X_Film-Noir_X_Horror_X_IMAX_X_Musical_X_Mystery_X_Romance_X_Sci-Fi_X_Thriller_X_War_X_Western_embedding/to_sparse_input_6/values"
  input: "dnn/input_from_feature_columns/input_layer/Action_X_Adventure_X_Animation_X_Children_X_Comedy_X_Crime_X_Documentary_X_Drama_X_Fantasy_X_Film-Noir_X_Horror_X_IMAX_X_Musical_X_Mystery_X_Romance_X_Sci-Fi_X_Thriller_X_War_X_Western_embedding/zero_6"
  attr {
    key: "T"
    value {
      type: DT_INT64
    }
  }
  attr {
    key: "_output_shapes"
    value {
      list {
        shape {
          dim {
            size: -1
          }
        }
      }
    }
  }
}
node {
  name: "dnn/input_from_feature_columns/input_layer/Action_X_Adventure_X_Animation_X_Children_X_Comedy_X_Crime_X_Documentary_X_Drama_X_Fantasy_X_Film-Noir_X_Horror_X_IMAX_X_Musical_X_Mystery_X_Romance_X_Sci-Fi_X_Thriller_X_War_X_Western_embedding/GreaterEqual_6"
  op: "GreaterEqual"
  input: "dnn/input_from_feature_columns/input_layer/Action_X_Adventure_X_Animation_X_Children_X_Comedy_X_Crime_X_Documentary_X_Drama_X_Fantasy_X_Film-Noir_X_Horror_X_IMAX_X_Musical_X_Mystery_X_Romance_X_Sci-Fi_X_Thriller_X_War_X_Western_embedding/to_sparse_input_6/values"
  input: "dnn/input_from_feature_columns/input_layer/Action_X_Adventure_X_Animation_X_Children_X_Comedy_X_Crime_X_Documentary_X_Drama_X_Fantasy_X_Film-Noir_X_Horror_X_IMAX_X_Musical_X_Mystery_X_Romance_X_Sci-Fi_X_Thriller_X_War_X_Western_embedding/num_buckets_6"
  attr {
    key: "T"
    value {
      type: DT_INT64
    }
  }
  attr {
    key: "_output_shapes"
    value {
      list {
        shape {
          dim {
            size: -1
          }
        }
      }
    }
  }
}
node {
  name: "dnn/input_from_feature_columns/input_layer/Action_X_Adventure_X_Animation_X_Children_X_Comedy_X_Crime_X_Documentary_X_Drama_X_Fantasy_X_Film-Noir_X_Horror_X_IMAX_X_Musical_X_Mystery_X_Romance_X_Sci-Fi_X_Thriller_X_War_X_Western_embedding/out_of_range_6"
  op: "LogicalOr"
  input: "dnn/input_from_feature_columns/input_layer/Action_X_Adventure_X_Animation_X_Children_X_Comedy_X_Crime_X_Documentary_X_Drama_X_Fantasy_X_Film-Noir_X_Horror_X_IMAX_X_Musical_X_Mystery_X_Romance_X_Sci-Fi_X_Thriller_X_War_X_Western_embedding/Less_6"
  input: "dnn/input_from_feature_columns/input_layer/Action_X_Adventure_X_Animation_X_Children_X_Comedy_X_Crime_X_Documentary_X_Drama_X_Fantasy_X_Film-Noir_X_Horror_X_IMAX_X_Musical_X_Mystery_X_Romance_X_Sci-Fi_X_Thriller_X_War_X_Western_embedding/GreaterEqual_6"
  attr {
    key: "_output_shapes"
    value {
      list {
        shape {
          dim {
            size: -1
          }
        }
      }
    }
  }
}
node {
  name: "dnn/input_from_feature_columns/input_layer/Action_X_Adventure_X_Animation_X_Children_X_Comedy_X_Crime_X_Documentary_X_Drama_X_Fantasy_X_Film-Noir_X_Horror_X_IMAX_X_Musical_X_Mystery_X_Romance_X_Sci-Fi_X_Thriller_X_War_X_Western_embedding/Shape_6"
  op: "Shape"
  input: "dnn/input_from_feature_columns/input_layer/Action_X_Adventure_X_Animation_X_Children_X_Comedy_X_Crime_X_Documentary_X_Drama_X_Fantasy_X_Film-Noir_X_Horror_X_IMAX_X_Musical_X_Mystery_X_Romance_X_Sci-Fi_X_Thriller_X_War_X_Western_embedding/to_sparse_input_6/values"
  attr {
    key: "T"
    value {
      type: DT_INT64
    }
  }
  attr {
    key: "_output_shapes"
    value {
      list {
        shape {
          dim {
            size: 1
          }
        }
      }
    }
  }
  attr {
    key: "out_type"
    value {
      type: DT_INT32
    }
  }
}
node {
  name: "dnn/input_from_feature_columns/input_layer/Action_X_Adventure_X_Animation_X_Children_X_Comedy_X_Crime_X_Documentary_X_Drama_X_Fantasy_X_Film-Noir_X_Horror_X_IMAX_X_Musical_X_Mystery_X_Romance_X_Sci-Fi_X_Thriller_X_War_X_Western_embedding/ToInt64_6/x"
  op: "Const"
  attr {
    key: "_output_shapes"
    value {
      list {
        shape {
        }
      }
    }
  }
  attr {
    key: "dtype"
    value {
      type: DT_INT32
    }
  }
  attr {
    key: "value"
    value {
      tensor {
        dtype: DT_INT32
        tensor_shape {
        }
        int_val: 0
      }
    }
  }
}
node {
  name: "dnn/input_from_feature_columns/input_layer/Action_X_Adventure_X_Animation_X_Children_X_Comedy_X_Crime_X_Documentary_X_Drama_X_Fantasy_X_Film-Noir_X_Horror_X_IMAX_X_Musical_X_Mystery_X_Romance_X_Sci-Fi_X_Thriller_X_War_X_Western_embedding/ToInt64_6"
  op: "Cast"
  input: "dnn/input_from_feature_columns/input_layer/Action_X_Adventure_X_Animation_X_Children_X_Comedy_X_Crime_X_Documentary_X_Drama_X_Fantasy_X_Film-Noir_X_Horror_X_IMAX_X_Musical_X_Mystery_X_Romance_X_Sci-Fi_X_Thriller_X_War_X_Western_embedding/ToInt64_6/x"
  attr {
    key: "DstT"
    value {
      type: DT_INT64
    }
  }
  attr {
    key: "SrcT"
    value {
      type: DT_INT32
    }
  }
  attr {
    key: "_output_shapes"
    value {
      list {
        shape {
        }
      }
    }
  }
}
node {
  name: "dnn/input_from_feature_columns/input_layer/Action_X_Adventure_X_Animation_X_Children_X_Comedy_X_Crime_X_Documentary_X_Drama_X_Fantasy_X_Film-Noir_X_Horror_X_IMAX_X_Musical_X_Mystery_X_Romance_X_Sci-Fi_X_Thriller_X_War_X_Western_embedding/default_values_6"
  op: "Fill"
  input: "dnn/input_from_feature_columns/input_layer/Action_X_Adventure_X_Animation_X_Children_X_Comedy_X_Crime_X_Documentary_X_Drama_X_Fantasy_X_Film-Noir_X_Horror_X_IMAX_X_Musical_X_Mystery_X_Romance_X_Sci-Fi_X_Thriller_X_War_X_Western_embedding/Shape_6"
  input: "dnn/input_from_feature_columns/input_layer/Action_X_Adventure_X_Animation_X_Children_X_Comedy_X_Crime_X_Documentary_X_Drama_X_Fantasy_X_Film-Noir_X_Horror_X_IMAX_X_Musical_X_Mystery_X_Romance_X_Sci-Fi_X_Thriller_X_War_X_Western_embedding/ToInt64_6"
  attr {
    key: "T"
    value {
      type: DT_INT64
    }
  }
  attr {
    key: "_output_shapes"
    value {
      list {
        shape {
          dim {
            size: -1
          }
        }
      }
    }
  }
  attr {
    key: "index_type"
    value {
      type: DT_INT32
    }
  }
}
node {
  name: "dnn/input_from_feature_columns/input_layer/Action_X_Adventure_X_Animation_X_Children_X_Comedy_X_Crime_X_Documentary_X_Drama_X_Fantasy_X_Film-Noir_X_Horror_X_IMAX_X_Musical_X_Mystery_X_Romance_X_Sci-Fi_X_Thriller_X_War_X_Western_embedding/Select_6"
  op: "Select"
  input: "dnn/input_from_feature_columns/input_layer/Action_X_Adventure_X_Animation_X_Children_X_Comedy_X_Crime_X_Documentary_X_Drama_X_Fantasy_X_Film-Noir_X_Horror_X_IMAX_X_Musical_X_Mystery_X_Romance_X_Sci-Fi_X_Thriller_X_War_X_Western_embedding/out_of_range_6"
  input: "dnn/input_from_feature_columns/input_layer/Action_X_Adventure_X_Animation_X_Children_X_Comedy_X_Crime_X_Documentary_X_Drama_X_Fantasy_X_Film-Noir_X_Horror_X_IMAX_X_Musical_X_Mystery_X_Romance_X_Sci-Fi_X_Thriller_X_War_X_Western_embedding/default_values_6"
  input: "dnn/input_from_feature_columns/input_layer/Action_X_Adventure_X_Animation_X_Children_X_Comedy_X_Crime_X_Documentary_X_Drama_X_Fantasy_X_Film-Noir_X_Horror_X_IMAX_X_Musical_X_Mystery_X_Romance_X_Sci-Fi_X_Thriller_X_War_X_Western_embedding/to_sparse_input_6/values"
  attr {
    key: "T"
    value {
      type: DT_INT64
    }
  }
  attr {
    key: "_output_shapes"
    value {
      list {
        shape {
          dim {
            size: -1
          }
        }
      }
    }
  }
}
node {
  name: "dnn/input_from_feature_columns/input_layer/Action_X_Adventure_X_Animation_X_Children_X_Comedy_X_Crime_X_Documentary_X_Drama_X_Fantasy_X_Film-Noir_X_Horror_X_IMAX_X_Musical_X_Mystery_X_Romance_X_Sci-Fi_X_Thriller_X_War_X_Western_embedding/ExpandDims_7/dim"
  op: "Const"
  attr {
    key: "_output_shapes"
    value {
      list {
        shape {
        }
      }
    }
  }
  attr {
    key: "dtype"
    value {
      type: DT_INT32
    }
  }
  attr {
    key: "value"
    value {
      tensor {
        dtype: DT_INT32
        tensor_shape {
        }
        int_val: -1
      }
    }
  }
}
node {
  name: "dnn/input_from_feature_columns/input_layer/Action_X_Adventure_X_Animation_X_Children_X_Comedy_X_Crime_X_Documentary_X_Drama_X_Fantasy_X_Film-Noir_X_Horror_X_IMAX_X_Musical_X_Mystery_X_Romance_X_Sci-Fi_X_Thriller_X_War_X_Western_embedding/ExpandDims_7"
  op: "ExpandDims"
  input: "random_shuffle_queue_DequeueUpTo:11"
  input: "dnn/input_from_feature_columns/input_layer/Action_X_Adventure_X_Animation_X_Children_X_Comedy_X_Crime_X_Documentary_X_Drama_X_Fantasy_X_Film-Noir_X_Horror_X_IMAX_X_Musical_X_Mystery_X_Romance_X_Sci-Fi_X_Thriller_X_War_X_Western_embedding/ExpandDims_7/dim"
  attr {
    key: "T"
    value {
      type: DT_INT64
    }
  }
  attr {
    key: "Tdim"
    value {
      type: DT_INT32
    }
  }
  attr {
    key: "_output_shapes"
    value {
      list {
        shape {
          dim {
            size: -1
          }
          dim {
            size: 1
          }
        }
      }
    }
  }
}
node {
  name: "dnn/input_from_feature_columns/input_layer/Action_X_Adventure_X_Animation_X_Children_X_Comedy_X_Crime_X_Documentary_X_Drama_X_Fantasy_X_Film-Noir_X_Horror_X_IMAX_X_Musical_X_Mystery_X_Romance_X_Sci-Fi_X_Thriller_X_War_X_Western_embedding/to_sparse_input_7/ignore_value/x"
  op: "Const"
  attr {
    key: "_output_shapes"
    value {
      list {
        shape {
        }
      }
    }
  }
  attr {
    key: "dtype"
    value {
      type: DT_INT32
    }
  }
  attr {
    key: "value"
    value {
      tensor {
        dtype: DT_INT32
        tensor_shape {
        }
        int_val: -1
      }
    }
  }
}
node {
  name: "dnn/input_from_feature_columns/input_layer/Action_X_Adventure_X_Animation_X_Children_X_Comedy_X_Crime_X_Documentary_X_Drama_X_Fantasy_X_Film-Noir_X_Horror_X_IMAX_X_Musical_X_Mystery_X_Romance_X_Sci-Fi_X_Thriller_X_War_X_Western_embedding/to_sparse_input_7/ignore_value"
…
    }
  }
}
node {
  name: "report_uninitialized_variables_1/LogicalNot"
  op: "LogicalNot"
  input: "report_uninitialized_variables_1/stack"
  device: "/device:CPU:0"
  attr {
    key: "_output_shapes"
    value {
      list {
        shape {
          dim {
            size: 23
          }
        }
      }
    }
  }
}
node {
  name: "report_uninitialized_variables_1/Const"
  op: "Const"
  device: "/device:CPU:0"
  attr {
    key: "_output_shapes"
    value {
      list {
        shape {
          dim {
            size: 23
          }
        }
      }
    }
  }
  attr {
    key: "dtype"
    value {
      type: DT_STRING
    }
  }
  attr {
    key: "value"
    value {
      tensor {
        dtype: DT_STRING
        tensor_shape {
          dim {
            size: 23
          }
        }
        string_val: "global_step"
        string_val: "…"
        string_val: "dnn/hiddenlayer_0/kernel/part_0"
        string_val: "dnn/hiddenlayer_0/bias/part_0"
        string_val: "dnn/hiddenlayer_1/kernel/part_0"
        string_val: "dnn/hiddenlayer_1/bias/part_0"
        string_val: "dnn/hiddenlayer_2/kernel/part_0"
        string_val: "dnn/hiddenlayer_2/bias/part_0"
        string_val: "dnn/hiddenlayer_3/kernel/part_0"
        string_val: "dnn/hiddenlayer_3/bias/part_0"
        string_val: "dnn/logits/kernel/part_0"
        string_val: "dnn/logits/bias/part_0"
        string_val: "…"
        string_val: "dnn/dnn/hiddenlayer_0/kernel/part_0/Adagrad"
        string_val: "dnn/dnn/hiddenlayer_0/bias/part_0/Adagrad"
        string_val: "dnn/dnn/hiddenlayer_1/kernel/part_0/Adagrad"
        string_val: "dnn/dnn/hiddenlayer_1/bias/part_0/Adagrad"
        string_val: "dnn/dnn/hiddenlayer_2/kernel/part_0/Adagrad"
        string_val: "dnn/dnn/hiddenlayer_2/bias/part_0/Adagrad"
        string_val: "dnn/dnn/hiddenlayer_3/kernel/part_0/Adagrad"
        string_val: "dnn/dnn/hiddenlayer_3/bias/part_0/Adagrad"
        string_val: "dnn/dnn/logits/kernel/part_0/Adagrad"
        string_val: "dnn/dnn/logits/bias/part_0/Adagrad"
      }
    }
  }
}
node {
  name: "report_uninitialized_variables_1/boolean_mask/Shape"
  op: "Const"
  device: "/device:CPU:0"
  attr {
    key: "_output_shapes"
    value {
      list {
        shape {
          dim {
            size: 1
          }
        }
      }
    }
  }
  attr {
    key: "dtype"
    value {
      type: DT_INT32
    }
  }
  attr {
    key: "value"
    value {
      tensor {
        dtype: DT_INT32
        tensor_shape {
          dim {
            size: 1
          }
        }
        int_val: 23
      }
    }
  }
}
node {
  name: "report_uninitialized_variables_1/boolean_mask/strided_slice/stack"
  op: "Const"
  device: "/device:CPU:0"
  attr {
    key: "_output_shapes"
    value {
      list {
        shape {
          dim {
            size: 1
          }
        }
      }
    }
  }
  attr {
    key: "dtype"
    value {
      type: DT_INT32
    }
  }
  attr {
    key: "value"
    value {
      tensor {
        dtype: DT_INT32
        tensor_shape {
          dim {
            size: 1
          }
        }
        int_val: 0
      }
    }
  }
}
node {
  name: "report_uninitialized_variables_1/boolean_mask/strided_slice/stack_1"
  op: "Const"
  device: "/device:CPU:0"
  attr {
    key: "_output_shapes"
    value {
      list {
        shape {
          dim {
            size: 1
          }
        }
      }
    }
  }
  attr {
    key: "dtype"
    value {
      type: DT_INT32
    }
  }
  attr {
    key: "value"
    value {
      tensor {
        dtype: DT_INT32
        tensor_shape {
          dim {
            size: 1
          }
        }
        int_val: 1
      }
    }
  }
}
node {
  name: "report_uninitialized_variables_1/boolean_mask/strided_slice/stack_2"
  op: "Const"
  device: "/device:CPU:0"
  attr {
    key: "_output_shapes"
    value {
      list {
        shape {
          dim {
            size: 1
          }
        }
      }
    }
  }
  attr {
    key: "dtype"
    value {
      type: DT_INT32
    }
  }
  attr {
    key: "value"
    value {
      tensor {
        dtype: DT_INT32
        tensor_shape {
          dim {
            size: 1
          }
        }
        int_val: 1
      }
    }
  }
}
node {
  name: "report_uninitialized_variables_1/boolean_mask/strided_slice"
  op: "StridedSlice"
  input: "report_uninitialized_variables_1/boolean_mask/Shape"
  input: "report_uninitialized_variables_1/boolean_mask/strided_slice/stack"
  input: "report_uninitialized_variables_1/boolean_mask/strided_slice/stack_1"
  input: "report_uninitialized_variables_1/boolean_mask/strided_slice/stack_2"
  device: "/device:CPU:0"
  attr {
    key: "Index"
    value {
      type: DT_INT32
    }
  }
  attr {
    key: "T"
    value {
      type: DT_INT32
    }
  }
  attr {
    key: "_output_shapes"
    value {
      list {
        shape {
          dim {
            size: 1
          }
        }
      }
    }
  }
  attr {
    key: "begin_mask"
    value {
      i: 0
    }
  }
  attr {
    key: "ellipsis_mask"
    value {
      i: 0
    }
  }
  attr {
    key: "end_mask"
    value {
      i: 0
    }
  }
  attr {
    key: "new_axis_mask"
    value {
      i: 0
    }
  }
  attr {
    key: "shrink_axis_mask"
    value {
      i: 0
    }
  }
}
node {
  name: "report_uninitialized_variables_1/boolean_mask/Prod/reduction_indices"
  op: "Const"
  device: "/device:CPU:0"
  attr {
    key: "_output_shapes"
    value {
      list {
        shape {
          dim {
            size: 1
          }
        }
      }
    }
  }
  attr {
    key: "dtype"
    value {
      type: DT_INT32
    }
  }
  attr {
    key: "value"
    value {
      tensor {
        dtype: DT_INT32
        tensor_shape {
          dim {
            size: 1
          }
        }
        int_val: 0
      }
    }
  }
}
node {
  name: "report_uninitialized_variables_1/boolean_mask/Prod"
  op: "Prod"
  input: "report_uninitialized_variables_1/boolean_mask/strided_slice"
  input: "report_uninitialized_variables_1/boolean_mask/Prod/reduction_indices"
  device: "/device:CPU:0"
  attr {
    key: "T"
    value {
      type: DT_INT32
    }
  }
  attr {
    key: "Tidx"
    value {
      type: DT_INT32
    }
  }
  attr {
    key: "_output_shapes"
    value {
      list {
        shape {
        }
      }
    }
  }
  attr {
    key: "keep_dims"
    value {
      b: false
    }
  }
}
node {
  name: "report_uninitialized_variables_1/boolean_mask/Shape_1"
  op: "Const"
  device: "/device:CPU:0"
  attr {
    key: "_output_shapes"
    value {
      list {
        shape {
          dim {
            size: 1
          }
        }
      }
    }
  }
  attr {
    key: "dtype"
    value {
      type: DT_INT32
    }
  }
  attr {
    key: "value"
    value {
      tensor {
        dtype: DT_INT32
        tensor_shape {
          dim {
            size: 1
          }
        }
        int_val: 23
      }
    }
  }
}
node {
  name: "report_uninitialized_variables_1/boolean_mask/strided_slice_1/stack"
  op: "Const"
  device: "/device:CPU:0"
  attr {
    key: "_output_shapes"
    value {
      list {
        shape {
          dim {
            size: 1
          }
        }
      }
    }
  }
  attr {
    key: "dtype"
    value {
      type: DT_INT32
    }
  }
  attr {
    key: "value"
    value {
      tensor {
        dtype: DT_INT32
        tensor_shape {
          dim {
            size: 1
          }
        }
        int_val: 0
      }
    }
  }
}
node {
  name: "report_uninitialized_variables_1/boolean_mask/strided_slice_1/stack_1"
  op: "Const"
  device: "/device:CPU:0"
  attr {
    key: "_output_shapes"
    value {
      list {
        shape {
          dim {
            size: 1
          }
        }
      }
    }
  }
  attr {
    key: "dtype"
    value {
      type: DT_INT32
    }
  }
  attr {
    key: "value"
    value {
      tensor {
        dtype: DT_INT32
        tensor_shape {
          dim {
            size: 1
          }
        }
        int_val: 0
      }
    }
  }
}
node {
  name: "report_uninitialized_variables_1/boolean_mask/strided_slice_1/stack_2"
  op: "Const"
  device: "/device:CPU:0"
  attr {
    key: "_output_shapes"
    value {
      list {
        shape {
          dim {
            size: 1
          }
        }
      }
    }
  }
  attr {
    key: "dtype"
    value {
      type: DT_INT32
    }
  }
  attr {
    key: "value"
    value {
      tensor {
        dtype: DT_INT32
        tensor_shape {
          dim {
            size: 1
          }
        }
        int_val: 1
      }
    }
  }
}
node {
  name: "report_uninitialized_variables_1/boolean_mask/strided_slice_1"
  op: "StridedSlice"
  input: "report_uninitialized_variables_1/boolean_mask/Shape_1"
  input: "report_uninitialized_variables_1/boolean_mask/strided_slice_1/stack"
  input: "report_uninitialized_variables_1/boolean_mask/strided_slice_1/stack_1"
  input: "report_uninitialized_variables_1/boolean_mask/strided_slice_1/stack_2"
  device: "/device:CPU:0"
  attr {
    key: "Index"
    value {
      type: DT_INT32
    }
  }
  attr {
    key: "T"
    value {
      type: DT_INT32
    }
  }
  attr {
    key: "_output_shapes"
    value {
      list {
        shape {
          dim {
          }
        }
      }
    }
  }
  attr {
    key: "begin_mask"
    value {
      i: 1
    }
  }
  attr {
    key: "ellipsis_mask"
    value {
      i: 0
    }
  }
  attr {
    key: "end_mask"
    value {
      i: 0
    }
  }
  attr {
    key: "new_axis_mask"
    value {
      i: 0
    }
  }
  attr {
    key: "shrink_axis_mask"
    value {
      i: 0
    }
  }
}
node {
  name: "report_uninitialized_variables_1/boolean_mask/Shape_2"
  op: "Const"
  device: "/device:CPU:0"
  attr {
    key: "_output_shapes"
    value {
      list {
        shape {
          dim {
            size: 1
          }
        }
      }
    }
  }
  attr {
    key: "dtype"
    value {
      type: DT_INT32
    }
  }
  attr {
    key: "value"
    value {
      tensor {
        dtype: DT_INT32
        tensor_shape {
          dim {
            size: 1
          }
        }
        int_val: 23
      }
    }
  }
}
node {
  name: "report_uninitialized_variables_1/boolean_mask/strided_slice_2/stack"
  op: "Const"
  device: "/device:CPU:0"
  attr {
    key: "_output_shapes"
    value {
      list {
        shape {
          dim {
            size: 1
          }
        }
      }
    }
  }
  attr {
    key: "dtype"
    value {
      type: DT_INT32
    }
  }
  attr {
    key: "value"
    value {
      tensor {
        dtype: DT_INT32
        tensor_shape {
          dim {
            size: 1
          }
        }
        int_val: 1
      }
    }
  }
}
node {
  name: "report_uninitialized_variables_1/boolean_mask/strided_slice_2/stack_1"
  op: "Const"
  device: "/device:CPU:0"
  attr {
    key: "_output_shapes"
    value {
      list {
        shape {
          dim {
            size: 1
          }
        }
      }
    }
  }
  attr {
    key: "dtype"
    value {
      type: DT_INT32
    }
  }
  attr {
    key: "value"
    value {
      tensor {
        dtype: DT_INT32
        tensor_shape {
          dim {
            size: 1
          }
        }
        int_val: 0
      }
    }
  }
}
node {
  name: "report_uninitialized_variables_1/boolean_mask/strided_slice_2/stack_2"
  op: "Const"
  device: "/device:CPU:0"
  attr {
    key: "_output_shapes"
    value {
      list {
        shape {
          dim {
            size: 1
          }
        }
      }
    }
  }
  attr {
    key: "dtype"
    value {
      type: DT_INT32
    }
  }
  attr {
    key: "value"
    value {
      tensor {
        dtype: DT_INT32
        tensor_shape {
          dim {
            size: 1
          }
        }
        int_val: 1
      }
    }
  }
}
node {
  name: "report_uninitialized_variables_1/boolean_mask/strided_slice_2"
  op: "StridedSlice"
  input: "report_uninitialized_variables_1/boolean_mask/Shape_2"
  input: "report_uninitialized_variables_1/boolean_mask/strided_slice_2/stack"
  input: "report_uninitialized_variables_1/boolean_mask/strided_slice_2/stack_1"
  input: "report_uninitialized_variables_1/boolean_mask/strided_slice_2/stack_2"
  device: "/device:CPU:0"
  attr {
    key: "Index"
    value {
      type: DT_INT32
    }
  }
  attr {
    key: "T"
    value {
      type: DT_INT32
    }
  }
  attr {
    key: "_output_shapes"
    value {
      list {
        shape {
          dim {
          }
        }
      }
    }
  }
  attr {
    key: "begin_mask"
    value {
      i: 0
    }
  }
  attr {
    key: "ellipsis_mask"
    value {
      i: 0
    }
  }
  attr {
    key: "end_mask"
    value {
      i: 1
    }
  }
  attr {
    key: "new_axis_mask"
    value {
      i: 0
    }
  }
  attr {
    key: "shrink_axis_mask"
    value {
      i: 0
    }
  }
}
node {
  name: "report_uninitialized_variables_1/boolean_mask/concat/values_1"
  op: "Pack"
  input: "report_uninitialized_variables_1/boolean_mask/Prod"
  device: "/device:CPU:0"
  attr {
    key: "N"
    value {
      i: 1
    }
  }
  attr {
    key: "T"
    value {
      type: DT_INT32
    }
  }
  attr {
    key: "_output_shapes"
    value {
      list {
        shape {
          dim {
            size: 1
          }
        }
      }
    }
  }
  attr {
    key: "axis"
    value {
      i: 0
    }
  }
}
node {
  name: "report_uninitialized_variables_1/boolean_mask/concat/axis"
  op: "Const"
  device: "/device:CPU:0"
  attr {
    key: "_output_shapes"
    value {
      list {
        shape {
        }
      }
    }
  }
  attr {
    key: "dtype"
    value {
      type: DT_INT32
    }
  }
  attr {
    key: "value"
    value {
      tensor {
        dtype: DT_INT32
        tensor_shape {
        }
        int_val: 0
      }
    }
  }
}
node {
  name: "report_uninitialized_variables_1/boolean_mask/concat"
  op: "ConcatV2"
  input: "report_uninitialized_variables_1/boolean_mask/strided_slice_1"
  input: "report_uninitialized_variables_1/boolean_mask/concat/values_1"
  input: "report_uninitialized_variables_1/boolean_mask/strided_slice_2"
  input: "report_uninitialized_variables_1/boolean_mask/concat/axis"
  device: "/device:CPU:0"
  attr {
    key: "N"
    value {
      i: 3
    }
  }
  attr {
    key: "T"
    value {
      type: DT_INT32
    }
  }
  attr {
    key: "Tidx"
    value {
      type: DT_INT32
    }
  }
  attr {
    key: "_output_shapes"
    value {
      list {
        shape {
          dim {
            size: 1
          }
        }
      }
    }
  }
}
node {
  name: "report_uninitialized_variables_1/boolean_mask/Reshape"
  op: "Reshape"
  input: "report_uninitialized_variables_1/Const"
  input: "report_uninitialized_variables_1/boolean_mask/concat"
  device: "/device:CPU:0"
  attr {
    key: "T"
    value {
      type: DT_STRING
    }
  }
  attr {
    key: "Tshape"
    value {
      type: DT_INT32
    }
  }
  attr {
    key: "_output_shapes"
    value {
      list {
        shape {
          dim {
            size: 23
          }
        }
      }
    }
  }
}
node {
  name: "report_uninitialized_variables_1/boolean_mask/Reshape_1/shape"
  op: "Const"
  device: "/device:CPU:0"
  attr {
    key: "_output_shapes"
    value {
      list {
        shape {
          dim {
            size: 1
          }
        }
      }
    }
  }
  attr {
    key: "dtype"
    value {
      type: DT_INT32
    }
  }
  attr {
    key: "value"
    value {
      tensor {
        dtype: DT_INT32
        tensor_shape {
          dim {
            size: 1
          }
        }
        int_val: -1
      }
    }
  }
}
node {
  name: "report_uninitialized_variables_1/boolean_mask/Reshape_1"
  op: "Reshape"
  input: "report_uninitialized_variables_1/LogicalNot"
  input: "report_uninitialized_variables_1/boolean_mask/Reshape_1/shape"
  device: "/device:CPU:0"
  attr {
    key: "T"
    value {
      type: DT_BOOL
    }
  }
  attr {
    key: "Tshape"
    value {
      type: DT_INT32
    }
  }
  attr {
    key: "_output_shapes"
    value {
      list {
        shape {
          dim {
            size: 23
          }
        }
      }
    }
  }
}
node {
  name: "report_uninitialized_variables_1/boolean_mask/Where"
  op: "Where"
  input: "report_uninitialized_variables_1/boolean_mask/Reshape_1"
  device: "/device:CPU:0"
  attr {
    key: "T"
    value {
      type: DT_BOOL
    }
  }
  attr {
    key: "_output_shapes"
    value {
      list {
        shape {
          dim {
            size: -1
          }
          dim {
            size: 1
          }
        }
      }
    }
  }
}
node {
  name: "report_uninitialized_variables_1/boolean_mask/Squeeze"
  op: "Squeeze"
  input: "report_uninitialized_variables_1/boolean_mask/Where"
  device: "/device:CPU:0"
  attr {
    key: "T"
    value {
      type: DT_INT64
    }
  }
  attr {
    key: "_output_shapes"
    value {
      list {
        shape {
          dim {
            size: -1
          }
        }
      }
    }
  }
  attr {
    key: "squeeze_dims"
    value {
      list {
        i: 1
      }
    }
  }
}
node {
  name: "report_uninitialized_variables_1/boolean_mask/GatherV2/axis"
  op: "Const"
  device: "/device:CPU:0"
  attr {
    key: "_output_shapes"
    value {
      list {
        shape {
        }
      }
    }
  }
  attr {
    key: "dtype"
    value {
      type: DT_INT32
    }
  }
  attr {
    key: "value"
    value {
      tensor {
        dtype: DT_INT32
        tensor_shape {
        }
        int_val: 0
      }
    }
  }
}
node {
  name: "report_uninitialized_variables_1/boolean_mask/GatherV2"
  op: "GatherV2"
  input: "report_uninitialized_variables_1/boolean_mask/Reshape"
  input: "report_uninitialized_variables_1/boolean_mask/Squeeze"
  input: "report_uninitialized_variables_1/boolean_mask/GatherV2/axis"
  device: "/device:CPU:0"
  attr {
    key: "Taxis"
    value {
      type: DT_INT32
    }
  }
  attr {
    key: "Tindices"
    value {
      type: DT_INT64
    }
  }
  attr {
    key: "Tparams"
    value {
      type: DT_STRING
    }
  }
  attr {
    key: "_output_shapes"
    value {
      list {
        shape {
          dim {
            size: -1
          }
        }
      }
    }
  }
}
node {
  name: "init_2"
  op: "NoOp"
}
node {
  name: "init_all_tables"
  op: "NoOp"
}
node {
  name: "init_3"
  op: "NoOp"
}
node {
  name: "group_deps_1"
  op: "NoOp"
  input: "^init_2"
  input: "^init_3"
  input: "^init_all_tables"
}
node {
  name: "Merge/MergeSummary"
  op: "MergeSummary"
  input: "enqueue_input/queue/enqueue_input/random_shuffle_queuefraction_over_250_of_750_full"
  input: "dnn/dnn/hiddenlayer_0/fraction_of_zero_values"
  input: "dnn/dnn/hiddenlayer_0/activation"
  input: "dnn/dnn/hiddenlayer_1/fraction_of_zero_values"
  input: "dnn/dnn/hiddenlayer_1/activation"
  input: "dnn/dnn/hiddenlayer_2/fraction_of_zero_values"
  input: "dnn/dnn/hiddenlayer_2/activation"
  input: "dnn/dnn/hiddenlayer_3/fraction_of_zero_values"
  input: "dnn/dnn/hiddenlayer_3/activation"
  input: "dnn/dnn/logits/fraction_of_zero_values"
  input: "dnn/dnn/logits/activation"
  input: "loss"
  input: "average_loss"
  attr {
    key: "N"
    value {
      i: 13
    }
  }
  attr {
    key: "_output_shapes"
    value {
      list {
        shape {
        }
      }
    }
  }
}
node {
  name: "save/Const"
  op: "Const"
  attr {
    key: "_output_shapes"
    value {
      list {
        shape {
        }
      }
    }
  }
  attr {
    key: "dtype"
    value {
      type: DT_STRING
    }
  }
  attr {
    key: "value"
    value {
      tensor {
        dtype: DT_STRING
        tensor_shape {
        }
        string_val: "model"
      }
    }
  }
}
node {
  name: "save/StringJoin/inputs_1"
  op: "Const"
  attr {
    key: "_output_shapes"
    value {
      list {
        shape {
        }
      }
    }
  }
  attr {
    key: "dtype"
    value {
      type: DT_STRING
    }
  }
  attr {
    key: "value"
    value {
      tensor {
        dtype: DT_STRING
        tensor_shape {
        }
        string_val: "_temp_f80440ae8e8443d4abb917177cf23e3d/part"
      }
    }
  }
}
node {
  name: "save/StringJoin"
  op: "StringJoin"
  input: "save/Const"
  input: "save/StringJoin/inputs_1"
  attr {
    key: "N"
    value {
      i: 2
    }
  }
  attr {
    key: "_output_shapes"
    value {
      list {
        shape {
        }
      }
    }
  }
  attr {
    key: "separator"
    value {
      s: ""
    }
  }
}
node {
  name: "save/num_shards"
  op: "Const"
  attr {
    key: "_output_shapes"
    value {
      list {
        shape {
        }
      }
    }
  }
  attr {
    key: "dtype"
    value {
      type: DT_INT32
    }
  }
  attr {
    key: "value"
    value {
      tensor {
        dtype: DT_INT32
        tensor_shape {
        }
        int_val: 1
      }
    }
  }
}
node {
  name: "save/ShardedFilename/shard"
  op: "Const"
  device: "/device:CPU:0"
  attr {
    key: "_output_shapes"
    value {
      list {
        shape {
        }
      }
    }
  }
  attr {
    key: "dtype"
    value {
      type: DT_INT32
    }
  }
  attr {
    key: "value"
    value {
      tensor {
        dtype: DT_INT32
        tensor_shape {
        }
        int_val: 0
      }
    }
  }
}
node {
  name: "save/ShardedFilename"
  op: "ShardedFilename"
  input: "save/StringJoin"
  input: "save/ShardedFilename/shard"
  input: "save/num_shards"
  device: "/device:CPU:0"
  attr {
    key: "_output_shapes"
    value {
      list {
        shape {
        }
      }
    }
  }
}
node {
  name: "save/SaveV2/tensor_names"
  op: "Const"
  device: "/device:CPU:0"
  attr {
    key: "_output_shapes"
    value {
      list {
        shape {
          dim {
            size: 23
          }
        }
      }
    }
  }
  attr {
    key: "dtype"
    value {
      type: DT_STRING
    }
  }
  attr {
    key: "value"
    value {
      tensor {
        dtype: DT_STRING
        tensor_shape {
          dim {
            size: 23
          }
        }
        string_val: "dnn/hiddenlayer_0/bias"
        string_val: "dnn/hiddenlayer_0/bias/t_0/Adagrad"
        string_val: "dnn/hiddenlayer_0/kernel"
        string_val: "dnn/hiddenlayer_0/kernel/t_0/Adagrad"
        string_val: "dnn/hiddenlayer_1/bias"
        string_val: "dnn/hiddenlayer_1/bias/t_0/Adagrad"
        string_val: "dnn/hiddenlayer_1/kernel"
        string_val: "dnn/hiddenlayer_1/kernel/t_0/Adagrad"
        string_val: "dnn/hiddenlayer_2/bias"
        string_val: "dnn/hiddenlayer_2/bias/t_0/Adagrad"
        string_val: "dnn/hiddenlayer_2/kernel"
        string_val: "dnn/hiddenlayer_2/kernel/t_0/Adagrad"
        string_val: "dnn/hiddenlayer_3/bias"
        string_val: "dnn/hiddenlayer_3/bias/t_0/Adagrad"
        string_val: "dnn/hiddenlayer_3/kernel"
        string_val: "dnn/hiddenlayer_3/kernel/t_0/Adagrad"
        string_val: "…"
        string_val: "…"
        string_val: "dnn/logits/bias"
        string_val: "dnn/logits/bias/t_0/Adagrad"
        string_val: "dnn/logits/kernel"
        string_val: "dnn/logits/kernel/t_0/Adagrad"
        string_val: "global_step"
      }
    }
  }
}
node {
  name: "save/SaveV2/shape_and_slices"
  op: "Const"
  device: "/device:CPU:0"
  attr {
    key: "_output_shapes"
    value {
      list {
        shape {
          dim {
            size: 23
          }
        }
      }
    }
  }
  attr {
    key: "dtype"
    value {
      type: DT_STRING
    }
  }
  attr {
    key: "value"
    value {
      tensor {
        dtype: DT_STRING
        tensor_shape {
          dim {
            size: 23
          }
        }
        string_val: "64 0,64"
        string_val: "64 0,64"
        string_val: "5 64 0,5:0,64"
        string_val: "5 64 0,5:0,64"
        string_val: "32 0,32"
        string_val: "32 0,32"
        string_val: "64 32 0,64:0,32"
        string_val: "64 32 0,64:0,32"
        string_val: "16 0,16"
        string_val: "16 0,16"
        string_val: "32 16 0,32:0,16"
        string_val: "32 16 0,32:0,16"
        string_val: "8 0,8"
        string_val: "8 0,8"
        string_val: "16 8 0,16:0,8"
        string_val: "16 8 0,16:0,8"
        string_val: "400 5 0,400:0,5"
        string_val: "400 5 0,400:0,5"
        string_val: "1 0,1"
        string_val: "1 0,1"
        string_val: "8 1 0,8:0,1"
        string_val: "8 1 0,8:0,1"
        string_val: ""
      }
    }
  }
}
node {
  name: "save/SaveV2"
  op: "SaveV2"
  input: "save/ShardedFilename"
  input: "save/SaveV2/tensor_names"
  input: "save/SaveV2/shape_and_slices"
  input: "dnn/hiddenlayer_0/bias/part_0/read"
  input: "dnn/dnn/hiddenlayer_0/bias/part_0/Adagrad/read"
  input: "dnn/hiddenlayer_0/kernel/part_0/read"
  input: "dnn/dnn/hiddenlayer_0/kernel/part_0/Adagrad/read"
  input: "dnn/hiddenlayer_1/bias/part_0/read"
  input: "dnn/dnn/hiddenlayer_1/bias/part_0/Adagrad/read"
  input: "dnn/hiddenlayer_1/kernel/part_0/read"
  input: "dnn/dnn/hiddenlayer_1/kernel/part_0/Adagrad/read"
  input: "dnn/hiddenlayer_2/bias/part_0/read"
  input: "dnn/dnn/hiddenlayer_2/bias/part_0/Adagrad/read"
  input: "dnn/hiddenlayer_2/kernel/part_0/read"
  input: "dnn/dnn/hiddenlayer_2/kernel/part_0/Adagrad/read"
  input: "dnn/hiddenlayer_3/bias/part_0/read"
  input: "dnn/dnn/hiddenlayer_3/bias/part_0/Adagrad/read"
  input: "dnn/hiddenlayer_3/kernel/part_0/read"
  input: "dnn/dnn/hiddenlayer_3/kernel/part_0/Adagrad/read"
  input: "dnn/input_from_feature_columns/input_layer/Action_X_Adventure_X_Animation_X_Children_X_Comedy_X_Crime_X_Documentary_X_Drama_X_Fantasy_X_Film-Noir_X_Horror_X_IMAX_X_Musical_X_Mystery_X_Romance_X_Sci-Fi_X_Thriller_X_War_X_Western_embedding/embedding_weights/part_0/read"
  input: "dnn/dnn/input_from_feature_columns/input_layer/Action_X_Adventure_X_Animation_X_Children_X_Comedy_X_Crime_X_Documentary_X_Drama_X_Fantasy_X_Film-Noir_X_Horror_X_IMAX_X_Musical_X_Mystery_X_Romance_X_Sci-Fi_X_Thriller_X_War_X_Western_embedding/embedding_weights/part_0/Adagrad/read"
  input: "dnn/logits/bias/part_0/read"
  input: "dnn/dnn/logits/bias/part_0/Adagrad/read"
  input: "dnn/logits/kernel/part_0/read"
  input: "dnn/dnn/logits/kernel/part_0/Adagrad/read"
  input: "global_step"
  device: "/device:CPU:0"
  attr {
    key: "dtypes"
    value {
      list {
        type: DT_FLOAT
        type: DT_FLOAT
        type: DT_FLOAT
        type: DT_FLOAT
        type: DT_FLOAT
        type: DT_FLOAT
        type: DT_FLOAT
        type: DT_FLOAT
        type: DT_FLOAT
        type: DT_FLOAT
        type: DT_FLOAT
        type: DT_FLOAT
        type: DT_FLOAT
        type: DT_FLOAT
        type: DT_FLOAT
        type: DT_FLOAT
        type: DT_FLOAT
        type: DT_FLOAT
        type: DT_FLOAT
        type: DT_FLOAT
        type: DT_FLOAT
        type: DT_FLOAT
        type: DT_INT64
      }
    }
  }
}
node {
  name: "save/control_dependency"
  op: "Identity"
  input: "save/ShardedFilename"
  input: "^save/SaveV2"
  device: "/device:CPU:0"
  attr {
    key: "T"
    value {
      type: DT_STRING
    }
  }
  attr {
    key: "_class"
    value {
      list {
        s: "loc:@save/ShardedFilename"
      }
    }
  }
  attr {
    key: "_output_shapes"
    value {
      list {
        shape {
        }
      }
    }
  }
}
node {
  name: "save/MergeV2Checkpoints/checkpoint_prefixes"
  op: "Pack"
  input: "save/ShardedFilename"
  input: "^save/control_dependency"
  device: "/device:CPU:0"
  attr {
    key: "N"
    value {
      i: 1
    }
  }
  attr {
    key: "T"
    value {
      type: DT_STRING
    }
  }
  attr {
    key: "_output_shapes"
    value {
      list {
        shape {
          dim {
            size: 1
          }
        }
      }
    }
  }
  attr {
    key: "axis"
    value {
      i: 0
    }
  }
}
node {
  name: "save/MergeV2Checkpoints"
  op: "MergeV2Checkpoints"
  input: "save/MergeV2Checkpoints/checkpoint_prefixes"
  input: "save/Const"
  device: "/device:CPU:0"
  attr {
    key: "delete_old_dirs"
    value {
      b: true
    }
  }
}
node {
  name: "save/Identity"
  op: "Identity"
  input: "save/Const"
  input: "^save/MergeV2Checkpoints"
  input: "^save/control_dependency"
  device: "/device:CPU:0"
  attr {
    key: "T"
    value {
      type: DT_STRING
    }
  }
  attr {
    key: "_output_shapes"
    value {
      list {
        shape {
        }
      }
    }
  }
}
node {
  name: "save/RestoreV2/tensor_names"
  op: "Const"
  device: "/device:CPU:0"
  attr {
    key: "_output_shapes"
    value {
      list {
        shape {
          dim {
            size: 23
          }
        }
      }
    }
  }
  attr {
    key: "dtype"
    value {
      type: DT_STRING
    }
  }
  attr {
    key: "value"
    value {
      tensor {
        dtype: DT_STRING
        tensor_shape {
          dim {
            size: 23
          }
        }
        string_val: "dnn/hiddenlayer_0/bias"
        string_val: "dnn/hiddenlayer_0/bias/t_0/Adagrad"
        string_val: "dnn/hiddenlayer_0/kernel"
        string_val: "dnn/hiddenlayer_0/kernel/t_0/Adagrad"
        string_val: "dnn/hiddenlayer_1/bias"
        string_val: "dnn/hiddenlayer_1/bias/t_0/Adagrad"
        string_val: "dnn/hiddenlayer_1/kernel"
        string_val: "dnn/hiddenlayer_1/kernel/t_0/Adagrad"
        string_val: "dnn/hiddenlayer_2/bias"
        string_val: "dnn/hiddenlayer_2/bias/t_0/Adagrad"
        string_val: "dnn/hiddenlayer_2/kernel"
        string_val: "dnn/hiddenlayer_2/kernel/t_0/Adagrad"
        string_val: "dnn/hiddenlayer_3/bias"
        string_val: "dnn/hiddenlayer_3/bias/t_0/Adagrad"
        string_val: "dnn/hiddenlayer_3/kernel"
        string_val: "dnn/hiddenlayer_3/kernel/t_0/Adagrad"
        string_val: "…"
        string_val: "…"
        string_val: "dnn/logits/bias"
        string_val: "dnn/logits/bias/t_0/Adagrad"
        string_val: "dnn/logits/kernel"
        string_val: "dnn/logits/kernel/t_0/Adagrad"
        string_val: "global_step"
      }
    }
  }
}
node {
  name: "save/RestoreV2/shape_and_slices"
  op: "Const"
  device: "/device:CPU:0"
  attr {
    key: "_output_shapes"
    value {
      list {
        shape {
          dim {
            size: 23
          }
        }
      }
    }
  }
  attr {
    key: "dtype"
    value {
      type: DT_STRING
    }
  }
  attr {
    key: "value"
    value {
      tensor {
        dtype: DT_STRING
        tensor_shape {
          dim {
            size: 23
          }
        }
        string_val: "64 0,64"
        string_val: "64 0,64"
        string_val: "5 64 0,5:0,64"
        string_val: "5 64 0,5:0,64"
        string_val: "32 0,32"
        string_val: "32 0,32"
        string_val: "64 32 0,64:0,32"
        string_val: "64 32 0,64:0,32"
        string_val: "16 0,16"
        string_val: "16 0,16"
        string_val: "32 16 0,32:0,16"
        string_val: "32 16 0,32:0,16"
        string_val: "8 0,8"
        string_val: "8 0,8"
        string_val: "16 8 0,16:0,8"
        string_val: "16 8 0,16:0,8"
        string_val: "400 5 0,400:0,5"
        string_val: "400 5 0,400:0,5"
        string_val: "1 0,1"
        string_val: "1 0,1"
        string_val: "8 1 0,8:0,1"
        string_val: "8 1 0,8:0,1"
        string_val: ""
      }
    }
  }
}
node {
  name: "save/RestoreV2"
  op: "RestoreV2"
  input: "save/Const"
  input: "save/RestoreV2/tensor_names"
  input: "save/RestoreV2/shape_and_slices"
  device: "/device:CPU:0"
  attr {
    key: "_output_shapes"
    value {
      list {
        shape {
          dim {
            size: 64
          }
        }
        shape {
          dim {
            size: 64
          }
        }
        shape {
          dim {
            size: 5
          }
          dim {
            size: 64
          }
        }
        shape {
          dim {
            size: 5
          }
          dim {
            size: 64
          }
        }
        shape {
          dim {
            size: 32
          }
        }
        shape {
          dim {
            size: 32
          }
        }
        shape {
          dim {
            size: 64
          }
          dim {
            size: 32
          }
        }
        shape {
          dim {
            size: 64
          }
          dim {
            size: 32
          }
        }
        shape {
          dim {
            size: 16
          }
        }
        shape {
          dim {
            size: 16
          }
        }
        shape {
          dim {
            size: 32
          }
          dim {
            size: 16
          }
        }
        shape {
          dim {
            size: 32
          }
          dim {
            size: 16
          }
        }
        shape {
          dim {
            size: 8
          }
        }
        shape {
          dim {
            size: 8
          }
        }
        shape {
          dim {
            size: 16
          }
          dim {
            size: 8
          }
        }
        shape {
          dim {
            size: 16
          }
          dim {
            size: 8
          }
        }
        shape {
          dim {
            size: 400
          }
          dim {
            size: 5
          }
        }
        shape {
          dim {
            size: 400
          }
          dim {
            size: 5
          }
        }
        shape {
          dim {
            size: 1
          }
        }
        shape {
          dim {
            size: 1
          }
        }
        shape {
          dim {
            size: 8
          }
          dim {
            size: 1
          }
        }
        shape {
          dim {
            size: 8
          }
          dim {
            size: 1
          }
        }
        shape {
          unknown_rank: true
        }
      }
    }
  }
  attr {
    key: "dtypes"
    value {
      list {
        type: DT_FLOAT
        type: DT_FLOAT
        type: DT_FLOAT
        type: DT_FLOAT
        type: DT_FLOAT
        type: DT_FLOAT
        type: DT_FLOAT
        type: DT_FLOAT
        type: DT_FLOAT
        type: DT_FLOAT
        type: DT_FLOAT
        type: DT_FLOAT
        type: DT_FLOAT
        type: DT_FLOAT
        type: DT_FLOAT
        type: DT_FLOAT
        type: DT_FLOAT
        type: DT_FLOAT
        type: DT_FLOAT
        type: DT_FLOAT
        type: DT_FLOAT
        type: DT_FLOAT
        type: DT_INT64
      }
    }
  }
}
node {
  name: "save/Assign"
  op: "Assign"
  input: "dnn/hiddenlayer_0/bias/part_0"
  input: "save/RestoreV2"
  attr {
    key: "T"
    value {
      type: DT_FLOAT
    }
  }
  attr {
    key: "_class"
    value {
      list {
        s: "loc:@dnn/hiddenlayer_0/bias/part_0"
      }
    }
  }
  attr {
    key: "_output_shapes"
    value {
      list {
        shape {
          dim {
            size: 64
          }
        }
      }
    }
  }
  attr {
    key: "use_locking"
    value {
      b: true
    }
  }
  attr {
    key: "validate_shape"
    value {
      b: true
    }
  }
}
node {
  name: "save/Assign_1"
  op: "Assign"
  input: "dnn/dnn/hiddenlayer_0/bias/part_0/Adagrad"
  input: "save/RestoreV2:1"
  attr {
    key: "T"
    value {
      type: DT_FLOAT
    }
  }
  attr {
    key: "_class"
    value {
      list {
        s: "loc:@dnn/hiddenlayer_0/bias/part_0"
      }
    }
  }
  attr {
    key: "_output_shapes"
    value {
      list {
        shape {
          dim {
            size: 64
          }
        }
      }
    }
  }
  attr {
    key: "use_locking"
    value {
      b: true
    }
  }
  attr {
    key: "validate_shape"
    value {
      b: true
    }
  }
}
node {
  name: "save/Assign_2"
  op: "Assign"
  input: "dnn/hiddenlayer_0/kernel/part_0"
  input: "save/RestoreV2:2"
  attr {
    key: "T"
    value {
      type: DT_FLOAT
    }
  }
  attr {
    key: "_class"
    value {
      list {
        s: "loc:@dnn/hiddenlayer_0/kernel/part_0"
      }
    }
  }
  attr {
    key: "_output_shapes"
    value {
      list {
        shape {
          dim {
            size: 5
          }
          dim {
            size: 64
          }
        }
      }
    }
  }
  attr {
    key: "use_locking"
    value {
      b: true
    }
  }
  attr {
    key: "validate_shape"
    value {
      b: true
    }
  }
}
node {
  name: "save/Assign_3"
  op: "Assign"
  input: "dnn/dnn/hiddenlayer_0/kernel/part_0/Adagrad"
  input: "save/RestoreV2:3"
  attr {
    key: "T"
    value {
      type: DT_FLOAT
    }
  }
  attr {
    key: "_class"
    value {
      list {
        s: "loc:@dnn/hiddenlayer_0/kernel/part_0"
      }
    }
  }
  attr {
    key: "_output_shapes"
    value {
      list {
        shape {
          dim {
            size: 5
          }
          dim {
            size: 64
          }
        }
      }
    }
  }
  attr {
    key: "use_locking"
    value {
      b: true
    }
  }
  attr {
    key: "validate_shape"
    value {
      b: true
    }
  }
}
node {
  name: "save/Assign_4"
  op: "Assign"
  input: "dnn/hiddenlayer_1/bias/part_0"
  input: "save/RestoreV2:4"
  attr {
    key: "T"
    value {
      type: DT_FLOAT
    }
  }
  attr {
    key: "_class"
    value {
      list {
        s: "loc:@dnn/hiddenlayer_1/bias/part_0"
      }
    }
  }
  attr {
    key: "_output_shapes"
    value {
      list {
        shape {
          dim {
            size: 32
          }
        }
      }
    }
  }
  attr {
    key: "use_locking"
    value {
      b: true
    }
  }
  attr {
    key: "validate_shape"
    value {
      b: true
    }
  }
}
node {
  name: "save/Assign_5"
  op: "Assign"
  input: "dnn/dnn/hiddenlayer_1/bias/part_0/Adagrad"
  input: "save/RestoreV2:5"
  attr {
    key: "T"
    value {
      type: DT_FLOAT
    }
  }
  attr {
    key: "_class"
    value {
      list {
        s: "loc:@dnn/hiddenlayer_1/bias/part_0"
      }
    }
  }
  attr {
    key: "_output_shapes"
    value {
      list {
        shape {
          dim {
            size: 32
          }
        }
      }
    }
  }
  attr {
    key: "use_locking"
    value {
      b: true
    }
  }
  attr {
    key: "validate_shape"
    value {
      b: true
    }
  }
}
node {
  name: "save/Assign_6"
  op: "Assign"
  input: "dnn/hiddenlayer_1/kernel/part_0"
  input: "save/RestoreV2:6"
  attr {
    key: "T"
    value {
      type: DT_FLOAT
    }
  }
  attr {
    key: "_class"
    value {
      list {
        s: "loc:@dnn/hiddenlayer_1/kernel/part_0"
      }
    }
  }
  attr {
    key: "_output_shapes"
    value {
      list {
        shape {
          dim {
            size: 64
          }
          dim {
            size: 32
          }
        }
      }
    }
  }
  attr {
    key: "use_locking"
    value {
      b: true
    }
  }
  attr {
    key: "validate_shape"
    value {
      b: true
    }
  }
}
node {
  name: "save/Assign_7"
  op: "Assign"
  input: "dnn/dnn/hiddenlayer_1/kernel/part_0/Adagrad"
  input: "save/RestoreV2:7"
  attr {
    key: "T"
    value {
      type: DT_FLOAT
    }
  }
  attr {
    key: "_class"
    value {
      list {
        s: "loc:@dnn/hiddenlayer_1/kernel/part_0"
      }
    }
  }
  attr {
    key: "_output_shapes"
    value {
      list {
        shape {
          dim {
            size: 64
          }
          dim {
            size: 32
          }
        }
      }
    }
  }
  attr {
    key: "use_locking"
    value {
      b: true
    }
  }
  attr {
    key: "validate_shape"
    value {
      b: true
    }
  }
}
node {
  name: "save/Assign_8"
  op: "Assign"
  input: "dnn/hiddenlayer_2/bias/part_0"
  input: "save/RestoreV2:8"
  attr {
    key: "T"
    value {
      type: DT_FLOAT
    }
  }
  attr {
    key: "_class"
    value {
      list {
        s: "loc:@dnn/hiddenlayer_2/bias/part_0"
      }
    }
  }
  attr {
    key: "_output_shapes"
    value {
      list {
        shape {
          dim {
            size: 16
          }
        }
      }
    }
  }
  attr {
    key: "use_locking"
    value {
      b: true
    }
  }
  attr {
    key: "validate_shape"
    value {
      b: true
    }
  }
}
node {
  name: "save/Assign_9"
  op: "Assign"
  input: "dnn/dnn/hiddenlayer_2/bias/part_0/Adagrad"
  input: "save/RestoreV2:9"
  attr {
    key: "T"
    value {
      type: DT_FLOAT
    }
  }
  attr {
    key: "_class"
    value {
      list {
        s: "loc:@dnn/hiddenlayer_2/bias/part_0"
      }
    }
  }
  attr {
    key: "_output_shapes"
    value {
      list {
        shape {
          dim {
            size: 16
          }
        }
      }
    }
  }
  attr {
    key: "use_locking"
    value {
      b: true
    }
  }
  attr {
    key: "validate_shape"
    value {
      b: true
    }
  }
}
node {
  name: "save/Assign_10"
  op: "Assign"
  input: "dnn/hiddenlayer_2/kernel/part_0"
  input: "save/RestoreV2:10"
  attr {
    key: "T"
    value {
      type: DT_FLOAT
    }
  }
  attr {
    key: "_class"
    value {
      list {
        s: "loc:@dnn/hiddenlayer_2/kernel/part_0"
      }
    }
  }
  attr {
    key: "_output_shapes"
    value {
      list {
        shape {
          dim {
            size: 32
          }
          dim {
            size: 16
          }
        }
      }
    }
  }
  attr {
    key: "use_locking"
    value {
      b: true
    }
  }
  attr {
    key: "validate_shape"
    value {
      b: true
    }
  }
}
node {
  name: "save/Assign_11"
  op: "Assign"
  input: "dnn/dnn/hiddenlayer_2/kernel/part_0/Adagrad"
  input: "save/RestoreV2:11"
  attr {
    key: "T"
    value {
      type: DT_FLOAT
    }
  }
  attr {
    key: "_class"
    value {
      list {
        s: "loc:@dnn/hiddenlayer_2/kernel/part_0"
      }
    }
  }
  attr {
    key: "_output_shapes"
    value {
      list {
        shape {
          dim {
            size: 32
          }
          dim {
            size: 16
          }
        }
      }
    }
  }
  attr {
    key: "use_locking"
    value {
      b: true
    }
  }
  attr {
    key: "validate_shape"
    value {
      b: true
    }
  }
}
node {
  name: "save/Assign_12"
  op: "Assign"
  input: "dnn/hiddenlayer_3/bias/part_0"
  input: "save/RestoreV2:12"
  attr {
    key: "T"
    value {
      type: DT_FLOAT
    }
  }
  attr {
    key: "_class"
    value {
      list {
        s: "loc:@dnn/hiddenlayer_3/bias/part_0"
      }
    }
  }
  attr {
    key: "_output_shapes"
    value {
      list {
        shape {
          dim {
            size: 8
          }
        }
      }
    }
  }
  attr {
    key: "use_locking"
    value {
      b: true
    }
  }
  attr {
    key: "validate_shape"
    value {
      b: true
    }
  }
}
node {
  name: "save/Assign_13"
  op: "Assign"
  input: "dnn/dnn/hiddenlayer_3/bias/part_0/Adagrad"
  input: "save/RestoreV2:13"
  attr {
    key: "T"
    value {
      type: DT_FLOAT
    }
  }
  attr {
    key: "_class"
    value {
      list {
        s: "loc:@dnn/hiddenlayer_3/bias/part_0"
      }
    }
  }
  attr {
    key: "_output_shapes"
    value {
      list {
        shape {
          dim {
            size: 8
          }
        }
      }
    }
  }
  attr {
    key: "use_locking"
    value {
      b: true
    }
  }
  attr {
    key: "validate_shape"
    value {
      b: true
    }
  }
}
node {
  name: "save/Assign_14"
  op: "Assign"
  input: "dnn/hiddenlayer_3/kernel/part_0"
  input: "save/RestoreV2:14"
  attr {
    key: "T"
    value {
      type: DT_FLOAT
    }
  }
  attr {
    key: "_class"
    value {
      list {
        s: "loc:@dnn/hiddenlayer_3/kernel/part_0"
      }
    }
  }
  attr {
    key: "_output_shapes"
    value {
      list {
        shape {
          dim {
            size: 16
          }
          dim {
            size: 8
          }
        }
      }
    }
  }
  attr {
    key: "use_locking"
    value {
      b: true
    }
  }
  attr {
    key: "validate_shape"
    value {
      b: true
    }
  }
}
node {
  name: "save/Assign_15"
  op: "Assign"
  input: "dnn/dnn/hiddenlayer_3/kernel/part_0/Adagrad"
  input: "save/RestoreV2:15"
  attr {
    key: "T"
    value {
      type: DT_FLOAT
    }
  }
  attr {
    key: "_class"
    value {
      list {
        s: "loc:@dnn/hiddenlayer_3/kernel/part_0"
      }
    }
  }
  attr {
    key: "_output_shapes"
    value {
      list {
        shape {
          dim {
            size: 16
          }
          dim {
            size: 8
          }
        }
      }
    }
  }
  attr {
    key: "use_locking"
    value {
      b: true
    }
  }
  attr {
    key: "validate_shape"
    value {
      b: true
    }
  }
}
node {
  name: "save/Assign_16"
  op: "Assign"
  input: "dnn/input_from_feature_columns/input_layer/Action_X_Adventure_X_Animation_X_Children_X_Comedy_X_Crime_X_Documentary_X_Drama_X_Fantasy_X_Film-Noir_X_Horror_X_IMAX_X_Musical_X_Mystery_X_Romance_X_Sci-Fi_X_Thriller_X_War_X_Western_embedding/embedding_weights/part_0"
  input: "save/RestoreV2:16"
  attr {
    key: "T"
    value {
      type: DT_FLOAT
    }
  }
  attr {
    key: "_class"
    value {
      list {
        s: "loc:@dnn/input_from_feature_columns/input_layer/Action_X_Adventure_X_Animation_X_Children_X_Comedy_X_Crime_X_Documentary_X_Drama_X_Fantasy_X_Film-Noir_X_Horror_X_IMAX_X_Musical_X_Mystery_X_Romance_X_Sci-Fi_X_Thriller_X_War_X_Western_embedding/embedding_weights/part_0"
      }
    }
  }
  attr {
    key: "_output_shapes"
    value {
      list {
        shape {
          dim {
            size: 400
          }
          dim {
            size: 5
          }
        }
      }
    }
  }
  attr {
    key: "use_locking"
    value {
      b: true
    }
  }
  attr {
    key: "validate_shape"
    value {
      b: true
    }
  }
}
node {
  name: "save/Assign_17"
  op: "Assign"
  input: "dnn/dnn/input_from_feature_columns/input_layer/Action_X_Adventure_X_Animation_X_Children_X_Comedy_X_Crime_X_Documentary_X_Drama_X_Fantasy_X_Film-Noir_X_Horror_X_IMAX_X_Musical_X_Mystery_X_Romance_X_Sci-Fi_X_Thriller_X_War_X_Western_embedding/embedding_weights/part_0/Adagrad"
  input: "save/RestoreV2:17"
  attr {
    key: "T"
    value {
      type: DT_FLOAT
    }
  }
  attr {
    key: "_class"
    value {
      list {
        s: "loc:@dnn/input_from_feature_columns/input_layer/Action_X_Adventure_X_Animation_X_Children_X_Comedy_X_Crime_X_Documentary_X_Drama_X_Fantasy_X_Film-Noir_X_Horror_X_IMAX_X_Musical_X_Mystery_X_Romance_X_Sci-Fi_X_Thriller_X_War_X_Western_embedding/embedding_weights/part_0"
      }
    }
  }
  attr {
    key: "_output_shapes"
    value {
      list {
        shape {
          dim {
            size: 400
          }
          dim {
            size: 5
          }
        }
      }
    }
  }
  attr {
    key: "use_locking"
    value {
      b: true
    }
  }
  attr {
    key: "validate_shape"
    value {
      b: true
    }
  }
}
node {
  name: "save/Assign_18"
  op: "Assign"
  input: "dnn/logits/bias/part_0"
  input: "save/RestoreV2:18"
  attr {
    key: "T"
    value {
      type: DT_FLOAT
    }
  }
  attr {
    key: "_class"
    value {
      list {
        s: "loc:@dnn/logits/bias/part_0"
      }
    }
  }
  attr {
    key: "_output_shapes"
    value {
      list {
        shape {
          dim {
            size: 1
          }
        }
      }
    }
  }
  attr {
    key: "use_locking"
    value {
      b: true
    }
  }
  attr {
    key: "validate_shape"
    value {
      b: true
    }
  }
}
node {
  name: "save/Assign_19"
  op: "Assign"
  input: "dnn/dnn/logits/bias/part_0/Adagrad"
  input: "save/RestoreV2:19"
  attr {
    key: "T"
    value {
      type: DT_FLOAT
    }
  }
  attr {
    key: "_class"
    value {
      list {
        s: "loc:@dnn/logits/bias/part_0"
      }
    }
  }
  attr {
    key: "_output_shapes"
    value {
      list {
        shape {
          dim {
            size: 1
          }
        }
      }
    }
  }
  attr {
    key: "use_locking"
    value {
      b: true
    }
  }
  attr {
    key: "validate_shape"
    value {
      b: true
    }
  }
}
node {
  name: "save/Assign_20"
  op: "Assign"
  input: "dnn/logits/kernel/part_0"
  input: "save/RestoreV2:20"
  attr {
    key: "T"
    value {
      type: DT_FLOAT
    }
  }
  attr {
    key: "_class"
    value {
      list {
        s: "loc:@dnn/logits/kernel/part_0"
      }
    }
  }
  attr {
    key: "_output_shapes"
    value {
      list {
        shape {
          dim {
            size: 8
          }
          dim {
            size: 1
          }
        }
      }
    }
  }
  attr {
    key: "use_locking"
    value {
      b: true
    }
  }
  attr {
    key: "validate_shape"
    value {
      b: true
    }
  }
}
node {
  name: "save/Assign_21"
  op: "Assign"
  input: "dnn/dnn/logits/kernel/part_0/Adagrad"
  input: "save/RestoreV2:21"
  attr {
    key: "T"
    value {
      type: DT_FLOAT
    }
  }
  attr {
    key: "_class"
    value {
      list {
        s: "loc:@dnn/logits/kernel/part_0"
      }
    }
  }
  attr {
    key: "_output_shapes"
    value {
      list {
        shape {
          dim {
            size: 8
          }
          dim {
            size: 1
          }
        }
      }
    }
  }
  attr {
    key: "use_locking"
    value {
      b: true
    }
  }
  attr {
    key: "validate_shape"
    value {
      b: true
    }
  }
}
node {
  name: "save/Assign_22"
  op: "Assign"
  input: "global_step"
  input: "save/RestoreV2:22"
  attr {
    key: "T"
    value {
      type: DT_INT64
    }
  }
  attr {
    key: "_class"
    value {
      list {
        s: "loc:@global_step"
      }
    }
  }
  attr {
    key: "_output_shapes"
    value {
      list {
        shape {
        }
      }
    }
  }
  attr {
    key: "use_locking"
    value {
      b: true
    }
  }
  attr {
    key: "validate_shape"
    value {
      b: true
    }
  }
}
node {
  name: "save/restore_shard"
  op: "NoOp"
  input: "^save/Assign"
  input: "^save/Assign_1"
  input: "^save/Assign_10"
  input: "^save/Assign_11"
  input: "^save/Assign_12"
  input: "^save/Assign_13"
  input: "^save/Assign_14"
  input: "^save/Assign_15"
  input: "^save/Assign_16"
  input: "^save/Assign_17"
  input: "^save/Assign_18"
  input: "^save/Assign_19"
  input: "^save/Assign_2"
  input: "^save/Assign_20"
  input: "^save/Assign_21"
  input: "^save/Assign_22"
  input: "^save/Assign_3"
  input: "^save/Assign_4"
  input: "^save/Assign_5"
  input: "^save/Assign_6"
  input: "^save/Assign_7"
  input: "^save/Assign_8"
  input: "^save/Assign_9"
}
node {
  name: "save/restore_all"
  op: "NoOp"
  input: "^save/restore_shard"
}
versions {
  producer: 26
}
